{"format": "graph-model", "generatedBy": "1.15.2", "convertedBy": "TensorFlow.js Converter v2.3.0", "userDefinedMetadata": {"signature": {"inputs": {"input_1:0": {"name": "input_1:0", "dtype": "DT_FLOAT", "tensorShape": {"dim": [{"size": "1"}, {"size": "64"}, {"size": "64"}, {"size": "3"}]}}}, "outputs": {"output_eyes_contours_and_brows:0": {"name": "output_eyes_contours_and_brows:0", "dtype": "DT_FLOAT", "tensorShape": {"dim": [{"size": "1"}, {"size": "-1"}]}}, "output_iris:0": {"name": "output_iris:0", "dtype": "DT_FLOAT", "tensorShape": {"dim": [{"size": "1"}, {"size": "-1"}]}}}}}, "modelTopology": {"node": [{"name": "p_re_lu_36/p_re_lu_36/Alpha", "op": "Const", "attr": {"dtype": {"type": "DT_FLOAT"}, "value": {"tensor": {"dtype": "DT_FLOAT", "tensorShape": {"dim": [{"size": "1"}, {"size": "1"}, {"size": "128"}]}}}}}, {"name": "p_re_lu_35/p_re_lu_35/Alpha", "op": "Const", "attr": {"value": {"tensor": {"dtype": "DT_FLOAT", "tensorShape": {"dim": [{"size": "1"}, {"size": "1"}, {"size": "64"}]}}}, "dtype": {"type": "DT_FLOAT"}}}, {"name": "p_re_lu_34/p_re_lu_34/Alpha", "op": "Const", "attr": {"dtype": {"type": "DT_FLOAT"}, "value": {"tensor": {"dtype": "DT_FLOAT", "tensorShape": {"dim": [{"size": "1"}, {"size": "1"}, {"size": "128"}]}}}}}, {"name": "p_re_lu_33/p_re_lu_33/Alpha", "op": "Const", "attr": {"value": {"tensor": {"dtype": "DT_FLOAT", "tensorShape": {"dim": [{"size": "1"}, {"size": "1"}, {"size": "64"}]}}}, "dtype": {"type": "DT_FLOAT"}}}, {"name": "p_re_lu_32/p_re_lu_32/Alpha", "op": "Const", "attr": {"dtype": {"type": "DT_FLOAT"}, "value": {"tensor": {"dtype": "DT_FLOAT", "tensorShape": {"dim": [{"size": "1"}, {"size": "1"}, {"size": "128"}]}}}}}, {"name": "p_re_lu_31/p_re_lu_31/Alpha", "op": "Const", "attr": {"dtype": {"type": "DT_FLOAT"}, "value": {"tensor": {"dtype": "DT_FLOAT", "tensorShape": {"dim": [{"size": "1"}, {"size": "1"}, {"size": "64"}]}}}}}, {"name": "p_re_lu_30/p_re_lu_30/Alpha", "op": "Const", "attr": {"dtype": {"type": "DT_FLOAT"}, "value": {"tensor": {"dtype": "DT_FLOAT", "tensorShape": {"dim": [{"size": "1"}, {"size": "1"}, {"size": "128"}]}}}}}, {"name": "p_re_lu_29/p_re_lu_29/Alpha", "op": "Const", "attr": {"value": {"tensor": {"dtype": "DT_FLOAT", "tensorShape": {"dim": [{"size": "1"}, {"size": "1"}, {"size": "64"}]}}}, "dtype": {"type": "DT_FLOAT"}}}, {"name": "p_re_lu_28/p_re_lu_28/Alpha", "op": "Const", "attr": {"value": {"tensor": {"dtype": "DT_FLOAT", "tensorShape": {"dim": [{"size": "1"}, {"size": "1"}, {"size": "128"}]}}}, "dtype": {"type": "DT_FLOAT"}}}, {"name": "p_re_lu_27/p_re_lu_27/Alpha", "op": "Const", "attr": {"value": {"tensor": {"dtype": "DT_FLOAT", "tensorShape": {"dim": [{"size": "1"}, {"size": "1"}, {"size": "64"}]}}}, "dtype": {"type": "DT_FLOAT"}}}, {"name": "p_re_lu_26/p_re_lu_26/Alpha", "op": "Const", "attr": {"dtype": {"type": "DT_FLOAT"}, "value": {"tensor": {"dtype": "DT_FLOAT", "tensorShape": {"dim": [{"size": "1"}, {"size": "1"}, {"size": "128"}]}}}}}, {"name": "p_re_lu_25/p_re_lu_25/Alpha", "op": "Const", "attr": {"dtype": {"type": "DT_FLOAT"}, "value": {"tensor": {"dtype": "DT_FLOAT", "tensorShape": {"dim": [{"size": "1"}, {"size": "1"}, {"size": "64"}]}}}}}, {"name": "p_re_lu_24/p_re_lu_24/Alpha", "op": "Const", "attr": {"value": {"tensor": {"dtype": "DT_FLOAT", "tensorShape": {"dim": [{"size": "1"}, {"size": "1"}, {"size": "128"}]}}}, "dtype": {"type": "DT_FLOAT"}}}, {"name": "p_re_lu_23/p_re_lu_23/Alpha", "op": "Const", "attr": {"value": {"tensor": {"dtype": "DT_FLOAT", "tensorShape": {"dim": [{"size": "1"}, {"size": "1"}, {"size": "64"}]}}}, "dtype": {"type": "DT_FLOAT"}}}, {"name": "p_re_lu_22/p_re_lu_22/Alpha", "op": "Const", "attr": {"value": {"tensor": {"dtype": "DT_FLOAT", "tensorShape": {"dim": [{"size": "1"}, {"size": "1"}, {"size": "128"}]}}}, "dtype": {"type": "DT_FLOAT"}}}, {"name": "p_re_lu_21/p_re_lu_21/Alpha", "op": "Const", "attr": {"value": {"tensor": {"dtype": "DT_FLOAT", "tensorShape": {"dim": [{"size": "1"}, {"size": "1"}, {"size": "64"}]}}}, "dtype": {"type": "DT_FLOAT"}}}, {"name": "conv2d_21/Kernel", "op": "Const", "attr": {"dtype": {"type": "DT_FLOAT"}, "value": {"tensor": {"dtype": "DT_FLOAT", "tensorShape": {"dim": [{"size": "1"}, {"size": "1"}, {"size": "128"}, {"size": "64"}]}}}}}, {"name": "conv2d_21/Bias", "op": "Const", "attr": {"value": {"tensor": {"dtype": "DT_FLOAT", "tensorShape": {"dim": [{"size": "64"}]}}}, "dtype": {"type": "DT_FLOAT"}}}, {"name": "depthwise_conv2d_10/Kernel", "op": "Const", "attr": {"value": {"tensor": {"dtype": "DT_FLOAT", "tensorShape": {"dim": [{"size": "3"}, {"size": "3"}, {"size": "64"}, {"size": "1"}]}}}, "dtype": {"type": "DT_FLOAT"}}}, {"name": "conv2d_22/Kernel", "op": "Const", "attr": {"dtype": {"type": "DT_FLOAT"}, "value": {"tensor": {"dtype": "DT_FLOAT", "tensorShape": {"dim": [{"size": "1"}, {"size": "1"}, {"size": "64"}, {"size": "128"}]}}}}}, {"name": "conv2d_22/Bias", "op": "Const", "attr": {"value": {"tensor": {"dtype": "DT_FLOAT", "tensorShape": {"dim": [{"size": "128"}]}}}, "dtype": {"type": "DT_FLOAT"}}}, {"name": "conv2d_23/Kernel", "op": "Const", "attr": {"value": {"tensor": {"dtype": "DT_FLOAT", "tensorShape": {"dim": [{"size": "1"}, {"size": "1"}, {"size": "128"}, {"size": "64"}]}}}, "dtype": {"type": "DT_FLOAT"}}}, {"name": "conv2d_23/Bias", "op": "Const", "attr": {"dtype": {"type": "DT_FLOAT"}, "value": {"tensor": {"dtype": "DT_FLOAT", "tensorShape": {"dim": [{"size": "64"}]}}}}}, {"name": "depthwise_conv2d_11/Kernel", "op": "Const", "attr": {"value": {"tensor": {"dtype": "DT_FLOAT", "tensorShape": {"dim": [{"size": "3"}, {"size": "3"}, {"size": "64"}, {"size": "1"}]}}}, "dtype": {"type": "DT_FLOAT"}}}, {"name": "conv2d_24/Kernel", "op": "Const", "attr": {"value": {"tensor": {"dtype": "DT_FLOAT", "tensorShape": {"dim": [{"size": "1"}, {"size": "1"}, {"size": "64"}, {"size": "128"}]}}}, "dtype": {"type": "DT_FLOAT"}}}, {"name": "conv2d_24/Bias", "op": "Const", "attr": {"value": {"tensor": {"dtype": "DT_FLOAT", "tensorShape": {"dim": [{"size": "128"}]}}}, "dtype": {"type": "DT_FLOAT"}}}, {"name": "conv2d_25/Kernel", "op": "Const", "attr": {"value": {"tensor": {"dtype": "DT_FLOAT", "tensorShape": {"dim": [{"size": "2"}, {"size": "2"}, {"size": "128"}, {"size": "64"}]}}}, "dtype": {"type": "DT_FLOAT"}}}, {"name": "conv2d_25/Bias", "op": "Const", "attr": {"dtype": {"type": "DT_FLOAT"}, "value": {"tensor": {"dtype": "DT_FLOAT", "tensorShape": {"dim": [{"size": "64"}]}}}}}, {"name": "depthwise_conv2d_12/Kernel", "op": "Const", "attr": {"value": {"tensor": {"dtype": "DT_FLOAT", "tensorShape": {"dim": [{"size": "3"}, {"size": "3"}, {"size": "64"}, {"size": "1"}]}}}, "dtype": {"type": "DT_FLOAT"}}}, {"name": "conv2d_26/Kernel", "op": "Const", "attr": {"value": {"tensor": {"dtype": "DT_FLOAT", "tensorShape": {"dim": [{"size": "1"}, {"size": "1"}, {"size": "64"}, {"size": "128"}]}}}, "dtype": {"type": "DT_FLOAT"}}}, {"name": "conv2d_26/Bias", "op": "Const", "attr": {"value": {"tensor": {"dtype": "DT_FLOAT", "tensorShape": {"dim": [{"size": "128"}]}}}, "dtype": {"type": "DT_FLOAT"}}}, {"name": "conv2d_27/Kernel", "op": "Const", "attr": {"value": {"tensor": {"dtype": "DT_FLOAT", "tensorShape": {"dim": [{"size": "1"}, {"size": "1"}, {"size": "128"}, {"size": "64"}]}}}, "dtype": {"type": "DT_FLOAT"}}}, {"name": "conv2d_27/Bias", "op": "Const", "attr": {"value": {"tensor": {"dtype": "DT_FLOAT", "tensorShape": {"dim": [{"size": "64"}]}}}, "dtype": {"type": "DT_FLOAT"}}}, {"name": "depthwise_conv2d_13/Kernel", "op": "Const", "attr": {"dtype": {"type": "DT_FLOAT"}, "value": {"tensor": {"dtype": "DT_FLOAT", "tensorShape": {"dim": [{"size": "3"}, {"size": "3"}, {"size": "64"}, {"size": "1"}]}}}}}, {"name": "conv2d_28/Kernel", "op": "Const", "attr": {"value": {"tensor": {"dtype": "DT_FLOAT", "tensorShape": {"dim": [{"size": "1"}, {"size": "1"}, {"size": "64"}, {"size": "128"}]}}}, "dtype": {"type": "DT_FLOAT"}}}, {"name": "conv2d_28/Bias", "op": "Const", "attr": {"value": {"tensor": {"dtype": "DT_FLOAT", "tensorShape": {"dim": [{"size": "128"}]}}}, "dtype": {"type": "DT_FLOAT"}}}, {"name": "conv2d_29/Kernel", "op": "Const", "attr": {"value": {"tensor": {"dtype": "DT_FLOAT", "tensorShape": {"dim": [{"size": "1"}, {"size": "1"}, {"size": "128"}, {"size": "64"}]}}}, "dtype": {"type": "DT_FLOAT"}}}, {"name": "conv2d_29/Bias", "op": "Const", "attr": {"dtype": {"type": "DT_FLOAT"}, "value": {"tensor": {"dtype": "DT_FLOAT", "tensorShape": {"dim": [{"size": "64"}]}}}}}, {"name": "depthwise_conv2d_14/Kernel", "op": "Const", "attr": {"value": {"tensor": {"dtype": "DT_FLOAT", "tensorShape": {"dim": [{"size": "3"}, {"size": "3"}, {"size": "64"}, {"size": "1"}]}}}, "dtype": {"type": "DT_FLOAT"}}}, {"name": "conv2d_30/Kernel", "op": "Const", "attr": {"value": {"tensor": {"dtype": "DT_FLOAT", "tensorShape": {"dim": [{"size": "1"}, {"size": "1"}, {"size": "64"}, {"size": "128"}]}}}, "dtype": {"type": "DT_FLOAT"}}}, {"name": "conv2d_30/Bias", "op": "Const", "attr": {"value": {"tensor": {"dtype": "DT_FLOAT", "tensorShape": {"dim": [{"size": "128"}]}}}, "dtype": {"type": "DT_FLOAT"}}}, {"name": "conv2d_31/Kernel", "op": "Const", "attr": {"value": {"tensor": {"dtype": "DT_FLOAT", "tensorShape": {"dim": [{"size": "2"}, {"size": "2"}, {"size": "128"}, {"size": "64"}]}}}, "dtype": {"type": "DT_FLOAT"}}}, {"name": "conv2d_31/Bias", "op": "Const", "attr": {"value": {"tensor": {"dtype": "DT_FLOAT", "tensorShape": {"dim": [{"size": "64"}]}}}, "dtype": {"type": "DT_FLOAT"}}}, {"name": "depthwise_conv2d_15/Kernel", "op": "Const", "attr": {"dtype": {"type": "DT_FLOAT"}, "value": {"tensor": {"dtype": "DT_FLOAT", "tensorShape": {"dim": [{"size": "3"}, {"size": "3"}, {"size": "64"}, {"size": "1"}]}}}}}, {"name": "conv2d_32/Kernel", "op": "Const", "attr": {"value": {"tensor": {"dtype": "DT_FLOAT", "tensorShape": {"dim": [{"size": "1"}, {"size": "1"}, {"size": "64"}, {"size": "128"}]}}}, "dtype": {"type": "DT_FLOAT"}}}, {"name": "conv2d_32/Bias", "op": "Const", "attr": {"dtype": {"type": "DT_FLOAT"}, "value": {"tensor": {"dtype": "DT_FLOAT", "tensorShape": {"dim": [{"size": "128"}]}}}}}, {"name": "conv2d_33/Kernel", "op": "Const", "attr": {"value": {"tensor": {"dtype": "DT_FLOAT", "tensorShape": {"dim": [{"size": "1"}, {"size": "1"}, {"size": "128"}, {"size": "64"}]}}}, "dtype": {"type": "DT_FLOAT"}}}, {"name": "conv2d_33/Bias", "op": "Const", "attr": {"value": {"tensor": {"dtype": "DT_FLOAT", "tensorShape": {"dim": [{"size": "64"}]}}}, "dtype": {"type": "DT_FLOAT"}}}, {"name": "depthwise_conv2d_16/Kernel", "op": "Const", "attr": {"value": {"tensor": {"dtype": "DT_FLOAT", "tensorShape": {"dim": [{"size": "3"}, {"size": "3"}, {"size": "64"}, {"size": "1"}]}}}, "dtype": {"type": "DT_FLOAT"}}}, {"name": "conv2d_34/Kernel", "op": "Const", "attr": {"value": {"tensor": {"dtype": "DT_FLOAT", "tensorShape": {"dim": [{"size": "1"}, {"size": "1"}, {"size": "64"}, {"size": "128"}]}}}, "dtype": {"type": "DT_FLOAT"}}}, {"name": "conv2d_34/Bias", "op": "Const", "attr": {"dtype": {"type": "DT_FLOAT"}, "value": {"tensor": {"dtype": "DT_FLOAT", "tensorShape": {"dim": [{"size": "128"}]}}}}}, {"name": "conv2d_35/Kernel", "op": "Const", "attr": {"value": {"tensor": {"dtype": "DT_FLOAT", "tensorShape": {"dim": [{"size": "1"}, {"size": "1"}, {"size": "128"}, {"size": "64"}]}}}, "dtype": {"type": "DT_FLOAT"}}}, {"name": "conv2d_35/Bias", "op": "Const", "attr": {"dtype": {"type": "DT_FLOAT"}, "value": {"tensor": {"dtype": "DT_FLOAT", "tensorShape": {"dim": [{"size": "64"}]}}}}}, {"name": "depthwise_conv2d_17/Kernel", "op": "Const", "attr": {"value": {"tensor": {"dtype": "DT_FLOAT", "tensorShape": {"dim": [{"size": "3"}, {"size": "3"}, {"size": "64"}, {"size": "1"}]}}}, "dtype": {"type": "DT_FLOAT"}}}, {"name": "conv2d_36/Kernel", "op": "Const", "attr": {"dtype": {"type": "DT_FLOAT"}, "value": {"tensor": {"dtype": "DT_FLOAT", "tensorShape": {"dim": [{"size": "1"}, {"size": "1"}, {"size": "64"}, {"size": "128"}]}}}}}, {"name": "conv2d_36/Bias", "op": "Const", "attr": {"dtype": {"type": "DT_FLOAT"}, "value": {"tensor": {"dtype": "DT_FLOAT", "tensorShape": {"dim": [{"size": "128"}]}}}}}, {"name": "conv_eyes_contours_and_brows/Kernel", "op": "Const", "attr": {"dtype": {"type": "DT_FLOAT"}, "value": {"tensor": {"dtype": "DT_FLOAT", "tensorShape": {"dim": [{"size": "2"}, {"size": "2"}, {"size": "128"}, {"size": "213"}]}}}}}, {"name": "conv_eyes_contours_and_brows/Bias", "op": "Const", "attr": {"dtype": {"type": "DT_FLOAT"}, "value": {"tensor": {"dtype": "DT_FLOAT", "tensorShape": {"dim": [{"size": "213"}]}}}}}, {"name": "output_eyes_contours_and_brows/shape", "op": "Const", "attr": {"value": {"tensor": {"dtype": "DT_INT32", "tensorShape": {"dim": [{"size": "2"}]}}}, "dtype": {"type": "DT_INT32"}}}, {"name": "p_re_lu_52/p_re_lu_52/Alpha", "op": "Const", "attr": {"dtype": {"type": "DT_FLOAT"}, "value": {"tensor": {"dtype": "DT_FLOAT", "tensorShape": {"dim": [{"size": "1"}, {"size": "1"}, {"size": "128"}]}}}}}, {"name": "p_re_lu_51/p_re_lu_51/Alpha", "op": "Const", "attr": {"value": {"tensor": {"dtype": "DT_FLOAT", "tensorShape": {"dim": [{"size": "1"}, {"size": "1"}, {"size": "64"}]}}}, "dtype": {"type": "DT_FLOAT"}}}, {"name": "p_re_lu_50/p_re_lu_50/Alpha", "op": "Const", "attr": {"dtype": {"type": "DT_FLOAT"}, "value": {"tensor": {"dtype": "DT_FLOAT", "tensorShape": {"dim": [{"size": "1"}, {"size": "1"}, {"size": "128"}]}}}}}, {"name": "p_re_lu_49/p_re_lu_49/Alpha", "op": "Const", "attr": {"value": {"tensor": {"dtype": "DT_FLOAT", "tensorShape": {"dim": [{"size": "1"}, {"size": "1"}, {"size": "64"}]}}}, "dtype": {"type": "DT_FLOAT"}}}, {"name": "p_re_lu_48/p_re_lu_48/Alpha", "op": "Const", "attr": {"dtype": {"type": "DT_FLOAT"}, "value": {"tensor": {"dtype": "DT_FLOAT", "tensorShape": {"dim": [{"size": "1"}, {"size": "1"}, {"size": "128"}]}}}}}, {"name": "p_re_lu_47/p_re_lu_47/Alpha", "op": "Const", "attr": {"value": {"tensor": {"dtype": "DT_FLOAT", "tensorShape": {"dim": [{"size": "1"}, {"size": "1"}, {"size": "64"}]}}}, "dtype": {"type": "DT_FLOAT"}}}, {"name": "p_re_lu_46/p_re_lu_46/Alpha", "op": "Const", "attr": {"value": {"tensor": {"dtype": "DT_FLOAT", "tensorShape": {"dim": [{"size": "1"}, {"size": "1"}, {"size": "128"}]}}}, "dtype": {"type": "DT_FLOAT"}}}, {"name": "p_re_lu_45/p_re_lu_45/Alpha", "op": "Const", "attr": {"value": {"tensor": {"dtype": "DT_FLOAT", "tensorShape": {"dim": [{"size": "1"}, {"size": "1"}, {"size": "64"}]}}}, "dtype": {"type": "DT_FLOAT"}}}, {"name": "p_re_lu_44/p_re_lu_44/Alpha", "op": "Const", "attr": {"value": {"tensor": {"dtype": "DT_FLOAT", "tensorShape": {"dim": [{"size": "1"}, {"size": "1"}, {"size": "128"}]}}}, "dtype": {"type": "DT_FLOAT"}}}, {"name": "p_re_lu_43/p_re_lu_43/Alpha", "op": "Const", "attr": {"value": {"tensor": {"dtype": "DT_FLOAT", "tensorShape": {"dim": [{"size": "1"}, {"size": "1"}, {"size": "64"}]}}}, "dtype": {"type": "DT_FLOAT"}}}, {"name": "p_re_lu_42/p_re_lu_42/Alpha", "op": "Const", "attr": {"value": {"tensor": {"dtype": "DT_FLOAT", "tensorShape": {"dim": [{"size": "1"}, {"size": "1"}, {"size": "128"}]}}}, "dtype": {"type": "DT_FLOAT"}}}, {"name": "p_re_lu_41/p_re_lu_41/Alpha", "op": "Const", "attr": {"dtype": {"type": "DT_FLOAT"}, "value": {"tensor": {"dtype": "DT_FLOAT", "tensorShape": {"dim": [{"size": "1"}, {"size": "1"}, {"size": "64"}]}}}}}, {"name": "p_re_lu_40/p_re_lu_40/Alpha", "op": "Const", "attr": {"value": {"tensor": {"dtype": "DT_FLOAT", "tensorShape": {"dim": [{"size": "1"}, {"size": "1"}, {"size": "128"}]}}}, "dtype": {"type": "DT_FLOAT"}}}, {"name": "p_re_lu_39/p_re_lu_39/Alpha", "op": "Const", "attr": {"value": {"tensor": {"dtype": "DT_FLOAT", "tensorShape": {"dim": [{"size": "1"}, {"size": "1"}, {"size": "64"}]}}}, "dtype": {"type": "DT_FLOAT"}}}, {"name": "p_re_lu_38/p_re_lu_38/Alpha", "op": "Const", "attr": {"value": {"tensor": {"dtype": "DT_FLOAT", "tensorShape": {"dim": [{"size": "1"}, {"size": "1"}, {"size": "128"}]}}}, "dtype": {"type": "DT_FLOAT"}}}, {"name": "p_re_lu_37/p_re_lu_37/Alpha", "op": "Const", "attr": {"value": {"tensor": {"dtype": "DT_FLOAT", "tensorShape": {"dim": [{"size": "1"}, {"size": "1"}, {"size": "64"}]}}}, "dtype": {"type": "DT_FLOAT"}}}, {"name": "p_re_lu_20/p_re_lu_20/Alpha", "op": "Const", "attr": {"value": {"tensor": {"dtype": "DT_FLOAT", "tensorShape": {"dim": [{"size": "1"}, {"size": "1"}, {"size": "128"}]}}}, "dtype": {"type": "DT_FLOAT"}}}, {"name": "p_re_lu_19/p_re_lu_19/Alpha", "op": "Const", "attr": {"value": {"tensor": {"dtype": "DT_FLOAT", "tensorShape": {"dim": [{"size": "1"}, {"size": "1"}, {"size": "64"}]}}}, "dtype": {"type": "DT_FLOAT"}}}, {"name": "p_re_lu_18/p_re_lu_18/Alpha", "op": "Const", "attr": {"dtype": {"type": "DT_FLOAT"}, "value": {"tensor": {"dtype": "DT_FLOAT", "tensorShape": {"dim": [{"size": "1"}, {"size": "1"}, {"size": "128"}]}}}}}, {"name": "p_re_lu_17/p_re_lu_17/Alpha", "op": "Const", "attr": {"value": {"tensor": {"dtype": "DT_FLOAT", "tensorShape": {"dim": [{"size": "1"}, {"size": "1"}, {"size": "64"}]}}}, "dtype": {"type": "DT_FLOAT"}}}, {"name": "p_re_lu_16/p_re_lu_16/Alpha", "op": "Const", "attr": {"dtype": {"type": "DT_FLOAT"}, "value": {"tensor": {"dtype": "DT_FLOAT", "tensorShape": {"dim": [{"size": "1"}, {"size": "1"}, {"size": "128"}]}}}}}, {"name": "p_re_lu_15/p_re_lu_15/Alpha", "op": "Const", "attr": {"value": {"tensor": {"dtype": "DT_FLOAT", "tensorShape": {"dim": [{"size": "1"}, {"size": "1"}, {"size": "64"}]}}}, "dtype": {"type": "DT_FLOAT"}}}, {"name": "p_re_lu_14/p_re_lu_14/Alpha", "op": "Const", "attr": {"value": {"tensor": {"dtype": "DT_FLOAT", "tensorShape": {"dim": [{"size": "1"}, {"size": "1"}, {"size": "128"}]}}}, "dtype": {"type": "DT_FLOAT"}}}, {"name": "p_re_lu_13/p_re_lu_13/Alpha", "op": "Const", "attr": {"dtype": {"type": "DT_FLOAT"}, "value": {"tensor": {"dtype": "DT_FLOAT", "tensorShape": {"dim": [{"size": "1"}, {"size": "1"}, {"size": "64"}]}}}}}, {"name": "p_re_lu_12/p_re_lu_12/Alpha", "op": "Const", "attr": {"dtype": {"type": "DT_FLOAT"}, "value": {"tensor": {"dtype": "DT_FLOAT", "tensorShape": {"dim": [{"size": "1"}, {"size": "1"}, {"size": "128"}]}}}}}, {"name": "p_re_lu_11/p_re_lu_11/Alpha", "op": "Const", "attr": {"dtype": {"type": "DT_FLOAT"}, "value": {"tensor": {"dtype": "DT_FLOAT", "tensorShape": {"dim": [{"size": "1"}, {"size": "1"}, {"size": "64"}]}}}}}, {"name": "p_re_lu_10/p_re_lu_10/Alpha", "op": "Const", "attr": {"value": {"tensor": {"dtype": "DT_FLOAT", "tensorShape": {"dim": [{"size": "1"}, {"size": "1"}, {"size": "128"}]}}}, "dtype": {"type": "DT_FLOAT"}}}, {"name": "channel_padding/Paddings", "op": "Const", "attr": {"value": {"tensor": {"dtype": "DT_INT32", "tensorShape": {"dim": [{"size": "4"}, {"size": "2"}]}}}, "dtype": {"type": "DT_INT32"}}}, {"name": "p_re_lu_9/p_re_lu_9/Alpha", "op": "Const", "attr": {"value": {"tensor": {"dtype": "DT_FLOAT", "tensorShape": {"dim": [{"size": "1"}, {"size": "1"}, {"size": "64"}]}}}, "dtype": {"type": "DT_FLOAT"}}}, {"name": "p_re_lu_8/p_re_lu_8/Alpha", "op": "Const", "attr": {"value": {"tensor": {"dtype": "DT_FLOAT", "tensorShape": {"dim": [{"size": "1"}, {"size": "1"}, {"size": "64"}]}}}, "dtype": {"type": "DT_FLOAT"}}}, {"name": "p_re_lu_7/p_re_lu_7/Alpha", "op": "Const", "attr": {"value": {"tensor": {"dtype": "DT_FLOAT", "tensorShape": {"dim": [{"size": "1"}, {"size": "1"}, {"size": "32"}]}}}, "dtype": {"type": "DT_FLOAT"}}}, {"name": "p_re_lu_6/p_re_lu_6/Alpha", "op": "Const", "attr": {"value": {"tensor": {"dtype": "DT_FLOAT", "tensorShape": {"dim": [{"size": "1"}, {"size": "1"}, {"size": "64"}]}}}, "dtype": {"type": "DT_FLOAT"}}}, {"name": "p_re_lu_5/p_re_lu_5/Alpha", "op": "Const", "attr": {"value": {"tensor": {"dtype": "DT_FLOAT", "tensorShape": {"dim": [{"size": "1"}, {"size": "1"}, {"size": "32"}]}}}, "dtype": {"type": "DT_FLOAT"}}}, {"name": "p_re_lu_4/p_re_lu_4/Alpha", "op": "Const", "attr": {"dtype": {"type": "DT_FLOAT"}, "value": {"tensor": {"dtype": "DT_FLOAT", "tensorShape": {"dim": [{"size": "1"}, {"size": "1"}, {"size": "64"}]}}}}}, {"name": "p_re_lu_3/p_re_lu_3/Alpha", "op": "Const", "attr": {"dtype": {"type": "DT_FLOAT"}, "value": {"tensor": {"dtype": "DT_FLOAT", "tensorShape": {"dim": [{"size": "1"}, {"size": "1"}, {"size": "32"}]}}}}}, {"name": "p_re_lu_2/p_re_lu_2/Alpha", "op": "Const", "attr": {"value": {"tensor": {"dtype": "DT_FLOAT", "tensorShape": {"dim": [{"size": "1"}, {"size": "1"}, {"size": "64"}]}}}, "dtype": {"type": "DT_FLOAT"}}}, {"name": "p_re_lu_1/p_re_lu_1/Alpha", "op": "Const", "attr": {"dtype": {"type": "DT_FLOAT"}, "value": {"tensor": {"dtype": "DT_FLOAT", "tensorShape": {"dim": [{"size": "1"}, {"size": "1"}, {"size": "32"}]}}}}}, {"name": "p_re_lu/p_re_lu/Alpha", "op": "Const", "attr": {"value": {"tensor": {"dtype": "DT_FLOAT", "tensorShape": {"dim": [{"size": "1"}, {"size": "1"}, {"size": "64"}]}}}, "dtype": {"type": "DT_FLOAT"}}}, {"name": "input_1", "op": "Placeholder", "attr": {"dtype": {"type": "DT_FLOAT"}, "shape": {"shape": {"dim": [{"size": "1"}, {"size": "64"}, {"size": "64"}, {"size": "3"}]}}}}, {"name": "conv2d/Kernel", "op": "Const", "attr": {"value": {"tensor": {"dtype": "DT_FLOAT", "tensorShape": {"dim": [{"size": "3"}, {"size": "3"}, {"size": "3"}, {"size": "64"}]}}}, "dtype": {"type": "DT_FLOAT"}}}, {"name": "conv2d/Bias", "op": "Const", "attr": {"value": {"tensor": {"dtype": "DT_FLOAT", "tensorShape": {"dim": [{"size": "64"}]}}}, "dtype": {"type": "DT_FLOAT"}}}, {"name": "conv2d_1/Kernel", "op": "Const", "attr": {"value": {"tensor": {"dtype": "DT_FLOAT", "tensorShape": {"dim": [{"size": "1"}, {"size": "1"}, {"size": "64"}, {"size": "32"}]}}}, "dtype": {"type": "DT_FLOAT"}}}, {"name": "conv2d_1/Bias", "op": "Const", "attr": {"value": {"tensor": {"dtype": "DT_FLOAT", "tensorShape": {"dim": [{"size": "32"}]}}}, "dtype": {"type": "DT_FLOAT"}}}, {"name": "depthwise_conv2d/Kernel", "op": "Const", "attr": {"dtype": {"type": "DT_FLOAT"}, "value": {"tensor": {"dtype": "DT_FLOAT", "tensorShape": {"dim": [{"size": "3"}, {"size": "3"}, {"size": "32"}, {"size": "1"}]}}}}}, {"name": "conv2d_2/Kernel", "op": "Const", "attr": {"value": {"tensor": {"dtype": "DT_FLOAT", "tensorShape": {"dim": [{"size": "1"}, {"size": "1"}, {"size": "32"}, {"size": "64"}]}}}, "dtype": {"type": "DT_FLOAT"}}}, {"name": "conv2d_2/Bias", "op": "Const", "attr": {"value": {"tensor": {"dtype": "DT_FLOAT", "tensorShape": {"dim": [{"size": "64"}]}}}, "dtype": {"type": "DT_FLOAT"}}}, {"name": "conv2d_3/Kernel", "op": "Const", "attr": {"value": {"tensor": {"dtype": "DT_FLOAT", "tensorShape": {"dim": [{"size": "1"}, {"size": "1"}, {"size": "64"}, {"size": "32"}]}}}, "dtype": {"type": "DT_FLOAT"}}}, {"name": "conv2d_3/Bias", "op": "Const", "attr": {"value": {"tensor": {"dtype": "DT_FLOAT", "tensorShape": {"dim": [{"size": "32"}]}}}, "dtype": {"type": "DT_FLOAT"}}}, {"name": "depthwise_conv2d_1/Kernel", "op": "Const", "attr": {"value": {"tensor": {"dtype": "DT_FLOAT", "tensorShape": {"dim": [{"size": "3"}, {"size": "3"}, {"size": "32"}, {"size": "1"}]}}}, "dtype": {"type": "DT_FLOAT"}}}, {"name": "conv2d_4/Kernel", "op": "Const", "attr": {"value": {"tensor": {"dtype": "DT_FLOAT", "tensorShape": {"dim": [{"size": "1"}, {"size": "1"}, {"size": "32"}, {"size": "64"}]}}}, "dtype": {"type": "DT_FLOAT"}}}, {"name": "conv2d_4/Bias", "op": "Const", "attr": {"value": {"tensor": {"dtype": "DT_FLOAT", "tensorShape": {"dim": [{"size": "64"}]}}}, "dtype": {"type": "DT_FLOAT"}}}, {"name": "conv2d_5/Kernel", "op": "Const", "attr": {"value": {"tensor": {"dtype": "DT_FLOAT", "tensorShape": {"dim": [{"size": "1"}, {"size": "1"}, {"size": "64"}, {"size": "32"}]}}}, "dtype": {"type": "DT_FLOAT"}}}, {"name": "conv2d_5/Bias", "op": "Const", "attr": {"value": {"tensor": {"dtype": "DT_FLOAT", "tensorShape": {"dim": [{"size": "32"}]}}}, "dtype": {"type": "DT_FLOAT"}}}, {"name": "depthwise_conv2d_2/Kernel", "op": "Const", "attr": {"value": {"tensor": {"dtype": "DT_FLOAT", "tensorShape": {"dim": [{"size": "3"}, {"size": "3"}, {"size": "32"}, {"size": "1"}]}}}, "dtype": {"type": "DT_FLOAT"}}}, {"name": "conv2d_6/Kernel", "op": "Const", "attr": {"value": {"tensor": {"dtype": "DT_FLOAT", "tensorShape": {"dim": [{"size": "1"}, {"size": "1"}, {"size": "32"}, {"size": "64"}]}}}, "dtype": {"type": "DT_FLOAT"}}}, {"name": "conv2d_6/Bias", "op": "Const", "attr": {"dtype": {"type": "DT_FLOAT"}, "value": {"tensor": {"dtype": "DT_FLOAT", "tensorShape": {"dim": [{"size": "64"}]}}}}}, {"name": "conv2d_7/Kernel", "op": "Const", "attr": {"value": {"tensor": {"dtype": "DT_FLOAT", "tensorShape": {"dim": [{"size": "1"}, {"size": "1"}, {"size": "64"}, {"size": "32"}]}}}, "dtype": {"type": "DT_FLOAT"}}}, {"name": "conv2d_7/Bias", "op": "Const", "attr": {"value": {"tensor": {"dtype": "DT_FLOAT", "tensorShape": {"dim": [{"size": "32"}]}}}, "dtype": {"type": "DT_FLOAT"}}}, {"name": "depthwise_conv2d_3/Kernel", "op": "Const", "attr": {"value": {"tensor": {"dtype": "DT_FLOAT", "tensorShape": {"dim": [{"size": "3"}, {"size": "3"}, {"size": "32"}, {"size": "1"}]}}}, "dtype": {"type": "DT_FLOAT"}}}, {"name": "conv2d_8/Kernel", "op": "Const", "attr": {"dtype": {"type": "DT_FLOAT"}, "value": {"tensor": {"dtype": "DT_FLOAT", "tensorShape": {"dim": [{"size": "1"}, {"size": "1"}, {"size": "32"}, {"size": "64"}]}}}}}, {"name": "conv2d_8/Bias", "op": "Const", "attr": {"value": {"tensor": {"dtype": "DT_FLOAT", "tensorShape": {"dim": [{"size": "64"}]}}}, "dtype": {"type": "DT_FLOAT"}}}, {"name": "conv2d_9/Kernel", "op": "Const", "attr": {"value": {"tensor": {"dtype": "DT_FLOAT", "tensorShape": {"dim": [{"size": "2"}, {"size": "2"}, {"size": "64"}, {"size": "64"}]}}}, "dtype": {"type": "DT_FLOAT"}}}, {"name": "conv2d_9/Bias", "op": "Const", "attr": {"value": {"tensor": {"dtype": "DT_FLOAT", "tensorShape": {"dim": [{"size": "64"}]}}}, "dtype": {"type": "DT_FLOAT"}}}, {"name": "depthwise_conv2d_4/Kernel", "op": "Const", "attr": {"value": {"tensor": {"dtype": "DT_FLOAT", "tensorShape": {"dim": [{"size": "3"}, {"size": "3"}, {"size": "64"}, {"size": "1"}]}}}, "dtype": {"type": "DT_FLOAT"}}}, {"name": "conv2d_10/Kernel", "op": "Const", "attr": {"value": {"tensor": {"dtype": "DT_FLOAT", "tensorShape": {"dim": [{"size": "1"}, {"size": "1"}, {"size": "64"}, {"size": "128"}]}}}, "dtype": {"type": "DT_FLOAT"}}}, {"name": "conv2d_10/Bias", "op": "Const", "attr": {"value": {"tensor": {"dtype": "DT_FLOAT", "tensorShape": {"dim": [{"size": "128"}]}}}, "dtype": {"type": "DT_FLOAT"}}}, {"name": "conv2d_11/Kernel", "op": "Const", "attr": {"value": {"tensor": {"dtype": "DT_FLOAT", "tensorShape": {"dim": [{"size": "1"}, {"size": "1"}, {"size": "128"}, {"size": "64"}]}}}, "dtype": {"type": "DT_FLOAT"}}}, {"name": "conv2d_11/Bias", "op": "Const", "attr": {"value": {"tensor": {"dtype": "DT_FLOAT", "tensorShape": {"dim": [{"size": "64"}]}}}, "dtype": {"type": "DT_FLOAT"}}}, {"name": "depthwise_conv2d_5/Kernel", "op": "Const", "attr": {"value": {"tensor": {"dtype": "DT_FLOAT", "tensorShape": {"dim": [{"size": "3"}, {"size": "3"}, {"size": "64"}, {"size": "1"}]}}}, "dtype": {"type": "DT_FLOAT"}}}, {"name": "conv2d_12/Kernel", "op": "Const", "attr": {"dtype": {"type": "DT_FLOAT"}, "value": {"tensor": {"dtype": "DT_FLOAT", "tensorShape": {"dim": [{"size": "1"}, {"size": "1"}, {"size": "64"}, {"size": "128"}]}}}}}, {"name": "conv2d_12/Bias", "op": "Const", "attr": {"value": {"tensor": {"dtype": "DT_FLOAT", "tensorShape": {"dim": [{"size": "128"}]}}}, "dtype": {"type": "DT_FLOAT"}}}, {"name": "conv2d_13/Kernel", "op": "Const", "attr": {"value": {"tensor": {"dtype": "DT_FLOAT", "tensorShape": {"dim": [{"size": "1"}, {"size": "1"}, {"size": "128"}, {"size": "64"}]}}}, "dtype": {"type": "DT_FLOAT"}}}, {"name": "conv2d_13/Bias", "op": "Const", "attr": {"value": {"tensor": {"dtype": "DT_FLOAT", "tensorShape": {"dim": [{"size": "64"}]}}}, "dtype": {"type": "DT_FLOAT"}}}, {"name": "depthwise_conv2d_6/Kernel", "op": "Const", "attr": {"value": {"tensor": {"dtype": "DT_FLOAT", "tensorShape": {"dim": [{"size": "3"}, {"size": "3"}, {"size": "64"}, {"size": "1"}]}}}, "dtype": {"type": "DT_FLOAT"}}}, {"name": "conv2d_14/Kernel", "op": "Const", "attr": {"dtype": {"type": "DT_FLOAT"}, "value": {"tensor": {"dtype": "DT_FLOAT", "tensorShape": {"dim": [{"size": "1"}, {"size": "1"}, {"size": "64"}, {"size": "128"}]}}}}}, {"name": "conv2d_14/Bias", "op": "Const", "attr": {"value": {"tensor": {"dtype": "DT_FLOAT", "tensorShape": {"dim": [{"size": "128"}]}}}, "dtype": {"type": "DT_FLOAT"}}}, {"name": "conv2d_15/Kernel", "op": "Const", "attr": {"value": {"tensor": {"dtype": "DT_FLOAT", "tensorShape": {"dim": [{"size": "1"}, {"size": "1"}, {"size": "128"}, {"size": "64"}]}}}, "dtype": {"type": "DT_FLOAT"}}}, {"name": "conv2d_15/Bias", "op": "Const", "attr": {"value": {"tensor": {"dtype": "DT_FLOAT", "tensorShape": {"dim": [{"size": "64"}]}}}, "dtype": {"type": "DT_FLOAT"}}}, {"name": "depthwise_conv2d_7/Kernel", "op": "Const", "attr": {"value": {"tensor": {"dtype": "DT_FLOAT", "tensorShape": {"dim": [{"size": "3"}, {"size": "3"}, {"size": "64"}, {"size": "1"}]}}}, "dtype": {"type": "DT_FLOAT"}}}, {"name": "conv2d_16/Kernel", "op": "Const", "attr": {"value": {"tensor": {"dtype": "DT_FLOAT", "tensorShape": {"dim": [{"size": "1"}, {"size": "1"}, {"size": "64"}, {"size": "128"}]}}}, "dtype": {"type": "DT_FLOAT"}}}, {"name": "conv2d_16/Bias", "op": "Const", "attr": {"dtype": {"type": "DT_FLOAT"}, "value": {"tensor": {"dtype": "DT_FLOAT", "tensorShape": {"dim": [{"size": "128"}]}}}}}, {"name": "conv2d_17/Kernel", "op": "Const", "attr": {"dtype": {"type": "DT_FLOAT"}, "value": {"tensor": {"dtype": "DT_FLOAT", "tensorShape": {"dim": [{"size": "1"}, {"size": "1"}, {"size": "128"}, {"size": "64"}]}}}}}, {"name": "conv2d_17/Bias", "op": "Const", "attr": {"value": {"tensor": {"dtype": "DT_FLOAT", "tensorShape": {"dim": [{"size": "64"}]}}}, "dtype": {"type": "DT_FLOAT"}}}, {"name": "depthwise_conv2d_8/Kernel", "op": "Const", "attr": {"value": {"tensor": {"dtype": "DT_FLOAT", "tensorShape": {"dim": [{"size": "3"}, {"size": "3"}, {"size": "64"}, {"size": "1"}]}}}, "dtype": {"type": "DT_FLOAT"}}}, {"name": "conv2d_18/Kernel", "op": "Const", "attr": {"value": {"tensor": {"dtype": "DT_FLOAT", "tensorShape": {"dim": [{"size": "1"}, {"size": "1"}, {"size": "64"}, {"size": "128"}]}}}, "dtype": {"type": "DT_FLOAT"}}}, {"name": "conv2d_18/Bias", "op": "Const", "attr": {"value": {"tensor": {"dtype": "DT_FLOAT", "tensorShape": {"dim": [{"size": "128"}]}}}, "dtype": {"type": "DT_FLOAT"}}}, {"name": "conv2d_19/Kernel", "op": "Const", "attr": {"value": {"tensor": {"dtype": "DT_FLOAT", "tensorShape": {"dim": [{"size": "2"}, {"size": "2"}, {"size": "128"}, {"size": "64"}]}}}, "dtype": {"type": "DT_FLOAT"}}}, {"name": "conv2d_19/Bias", "op": "Const", "attr": {"dtype": {"type": "DT_FLOAT"}, "value": {"tensor": {"dtype": "DT_FLOAT", "tensorShape": {"dim": [{"size": "64"}]}}}}}, {"name": "depthwise_conv2d_9/Kernel", "op": "Const", "attr": {"value": {"tensor": {"dtype": "DT_FLOAT", "tensorShape": {"dim": [{"size": "3"}, {"size": "3"}, {"size": "64"}, {"size": "1"}]}}}, "dtype": {"type": "DT_FLOAT"}}}, {"name": "conv2d_20/Kernel", "op": "Const", "attr": {"value": {"tensor": {"dtype": "DT_FLOAT", "tensorShape": {"dim": [{"size": "1"}, {"size": "1"}, {"size": "64"}, {"size": "128"}]}}}, "dtype": {"type": "DT_FLOAT"}}}, {"name": "conv2d_20/Bias", "op": "Const", "attr": {"dtype": {"type": "DT_FLOAT"}, "value": {"tensor": {"dtype": "DT_FLOAT", "tensorShape": {"dim": [{"size": "128"}]}}}}}, {"name": "conv2d_37/Kernel", "op": "Const", "attr": {"value": {"tensor": {"dtype": "DT_FLOAT", "tensorShape": {"dim": [{"size": "1"}, {"size": "1"}, {"size": "128"}, {"size": "64"}]}}}, "dtype": {"type": "DT_FLOAT"}}}, {"name": "conv2d_37/Bias", "op": "Const", "attr": {"value": {"tensor": {"dtype": "DT_FLOAT", "tensorShape": {"dim": [{"size": "64"}]}}}, "dtype": {"type": "DT_FLOAT"}}}, {"name": "depthwise_conv2d_18/Kernel", "op": "Const", "attr": {"dtype": {"type": "DT_FLOAT"}, "value": {"tensor": {"dtype": "DT_FLOAT", "tensorShape": {"dim": [{"size": "3"}, {"size": "3"}, {"size": "64"}, {"size": "1"}]}}}}}, {"name": "conv2d_38/Kernel", "op": "Const", "attr": {"value": {"tensor": {"dtype": "DT_FLOAT", "tensorShape": {"dim": [{"size": "1"}, {"size": "1"}, {"size": "64"}, {"size": "128"}]}}}, "dtype": {"type": "DT_FLOAT"}}}, {"name": "conv2d_38/Bias", "op": "Const", "attr": {"dtype": {"type": "DT_FLOAT"}, "value": {"tensor": {"dtype": "DT_FLOAT", "tensorShape": {"dim": [{"size": "128"}]}}}}}, {"name": "conv2d_39/Kernel", "op": "Const", "attr": {"value": {"tensor": {"dtype": "DT_FLOAT", "tensorShape": {"dim": [{"size": "1"}, {"size": "1"}, {"size": "128"}, {"size": "64"}]}}}, "dtype": {"type": "DT_FLOAT"}}}, {"name": "conv2d_39/Bias", "op": "Const", "attr": {"dtype": {"type": "DT_FLOAT"}, "value": {"tensor": {"dtype": "DT_FLOAT", "tensorShape": {"dim": [{"size": "64"}]}}}}}, {"name": "depthwise_conv2d_19/Kernel", "op": "Const", "attr": {"dtype": {"type": "DT_FLOAT"}, "value": {"tensor": {"dtype": "DT_FLOAT", "tensorShape": {"dim": [{"size": "3"}, {"size": "3"}, {"size": "64"}, {"size": "1"}]}}}}}, {"name": "conv2d_40/Kernel", "op": "Const", "attr": {"value": {"tensor": {"dtype": "DT_FLOAT", "tensorShape": {"dim": [{"size": "1"}, {"size": "1"}, {"size": "64"}, {"size": "128"}]}}}, "dtype": {"type": "DT_FLOAT"}}}, {"name": "conv2d_40/Bias", "op": "Const", "attr": {"value": {"tensor": {"dtype": "DT_FLOAT", "tensorShape": {"dim": [{"size": "128"}]}}}, "dtype": {"type": "DT_FLOAT"}}}, {"name": "conv2d_41/Kernel", "op": "Const", "attr": {"value": {"tensor": {"dtype": "DT_FLOAT", "tensorShape": {"dim": [{"size": "2"}, {"size": "2"}, {"size": "128"}, {"size": "64"}]}}}, "dtype": {"type": "DT_FLOAT"}}}, {"name": "conv2d_41/Bias", "op": "Const", "attr": {"dtype": {"type": "DT_FLOAT"}, "value": {"tensor": {"dtype": "DT_FLOAT", "tensorShape": {"dim": [{"size": "64"}]}}}}}, {"name": "depthwise_conv2d_20/Kernel", "op": "Const", "attr": {"value": {"tensor": {"dtype": "DT_FLOAT", "tensorShape": {"dim": [{"size": "3"}, {"size": "3"}, {"size": "64"}, {"size": "1"}]}}}, "dtype": {"type": "DT_FLOAT"}}}, {"name": "conv2d_42/Kernel", "op": "Const", "attr": {"value": {"tensor": {"dtype": "DT_FLOAT", "tensorShape": {"dim": [{"size": "1"}, {"size": "1"}, {"size": "64"}, {"size": "128"}]}}}, "dtype": {"type": "DT_FLOAT"}}}, {"name": "conv2d_42/Bias", "op": "Const", "attr": {"value": {"tensor": {"dtype": "DT_FLOAT", "tensorShape": {"dim": [{"size": "128"}]}}}, "dtype": {"type": "DT_FLOAT"}}}, {"name": "conv2d_43/Kernel", "op": "Const", "attr": {"value": {"tensor": {"dtype": "DT_FLOAT", "tensorShape": {"dim": [{"size": "1"}, {"size": "1"}, {"size": "128"}, {"size": "64"}]}}}, "dtype": {"type": "DT_FLOAT"}}}, {"name": "conv2d_43/Bias", "op": "Const", "attr": {"value": {"tensor": {"dtype": "DT_FLOAT", "tensorShape": {"dim": [{"size": "64"}]}}}, "dtype": {"type": "DT_FLOAT"}}}, {"name": "depthwise_conv2d_21/Kernel", "op": "Const", "attr": {"value": {"tensor": {"dtype": "DT_FLOAT", "tensorShape": {"dim": [{"size": "3"}, {"size": "3"}, {"size": "64"}, {"size": "1"}]}}}, "dtype": {"type": "DT_FLOAT"}}}, {"name": "conv2d_44/Kernel", "op": "Const", "attr": {"value": {"tensor": {"dtype": "DT_FLOAT", "tensorShape": {"dim": [{"size": "1"}, {"size": "1"}, {"size": "64"}, {"size": "128"}]}}}, "dtype": {"type": "DT_FLOAT"}}}, {"name": "conv2d_44/Bias", "op": "Const", "attr": {"dtype": {"type": "DT_FLOAT"}, "value": {"tensor": {"dtype": "DT_FLOAT", "tensorShape": {"dim": [{"size": "128"}]}}}}}, {"name": "conv2d_45/Kernel", "op": "Const", "attr": {"value": {"tensor": {"dtype": "DT_FLOAT", "tensorShape": {"dim": [{"size": "1"}, {"size": "1"}, {"size": "128"}, {"size": "64"}]}}}, "dtype": {"type": "DT_FLOAT"}}}, {"name": "conv2d_45/Bias", "op": "Const", "attr": {"value": {"tensor": {"dtype": "DT_FLOAT", "tensorShape": {"dim": [{"size": "64"}]}}}, "dtype": {"type": "DT_FLOAT"}}}, {"name": "depthwise_conv2d_22/Kernel", "op": "Const", "attr": {"value": {"tensor": {"dtype": "DT_FLOAT", "tensorShape": {"dim": [{"size": "3"}, {"size": "3"}, {"size": "64"}, {"size": "1"}]}}}, "dtype": {"type": "DT_FLOAT"}}}, {"name": "conv2d_46/Kernel", "op": "Const", "attr": {"value": {"tensor": {"dtype": "DT_FLOAT", "tensorShape": {"dim": [{"size": "1"}, {"size": "1"}, {"size": "64"}, {"size": "128"}]}}}, "dtype": {"type": "DT_FLOAT"}}}, {"name": "conv2d_46/Bias", "op": "Const", "attr": {"value": {"tensor": {"dtype": "DT_FLOAT", "tensorShape": {"dim": [{"size": "128"}]}}}, "dtype": {"type": "DT_FLOAT"}}}, {"name": "conv2d_47/Kernel", "op": "Const", "attr": {"value": {"tensor": {"dtype": "DT_FLOAT", "tensorShape": {"dim": [{"size": "2"}, {"size": "2"}, {"size": "128"}, {"size": "64"}]}}}, "dtype": {"type": "DT_FLOAT"}}}, {"name": "conv2d_47/Bias", "op": "Const", "attr": {"value": {"tensor": {"dtype": "DT_FLOAT", "tensorShape": {"dim": [{"size": "64"}]}}}, "dtype": {"type": "DT_FLOAT"}}}, {"name": "depthwise_conv2d_23/Kernel", "op": "Const", "attr": {"value": {"tensor": {"dtype": "DT_FLOAT", "tensorShape": {"dim": [{"size": "3"}, {"size": "3"}, {"size": "64"}, {"size": "1"}]}}}, "dtype": {"type": "DT_FLOAT"}}}, {"name": "conv2d_48/Kernel", "op": "Const", "attr": {"value": {"tensor": {"dtype": "DT_FLOAT", "tensorShape": {"dim": [{"size": "1"}, {"size": "1"}, {"size": "64"}, {"size": "128"}]}}}, "dtype": {"type": "DT_FLOAT"}}}, {"name": "conv2d_48/Bias", "op": "Const", "attr": {"value": {"tensor": {"dtype": "DT_FLOAT", "tensorShape": {"dim": [{"size": "128"}]}}}, "dtype": {"type": "DT_FLOAT"}}}, {"name": "conv2d_49/Kernel", "op": "Const", "attr": {"value": {"tensor": {"dtype": "DT_FLOAT", "tensorShape": {"dim": [{"size": "1"}, {"size": "1"}, {"size": "128"}, {"size": "64"}]}}}, "dtype": {"type": "DT_FLOAT"}}}, {"name": "conv2d_49/Bias", "op": "Const", "attr": {"value": {"tensor": {"dtype": "DT_FLOAT", "tensorShape": {"dim": [{"size": "64"}]}}}, "dtype": {"type": "DT_FLOAT"}}}, {"name": "depthwise_conv2d_24/Kernel", "op": "Const", "attr": {"value": {"tensor": {"dtype": "DT_FLOAT", "tensorShape": {"dim": [{"size": "3"}, {"size": "3"}, {"size": "64"}, {"size": "1"}]}}}, "dtype": {"type": "DT_FLOAT"}}}, {"name": "conv2d_50/Kernel", "op": "Const", "attr": {"dtype": {"type": "DT_FLOAT"}, "value": {"tensor": {"dtype": "DT_FLOAT", "tensorShape": {"dim": [{"size": "1"}, {"size": "1"}, {"size": "64"}, {"size": "128"}]}}}}}, {"name": "conv2d_50/Bias", "op": "Const", "attr": {"value": {"tensor": {"dtype": "DT_FLOAT", "tensorShape": {"dim": [{"size": "128"}]}}}, "dtype": {"type": "DT_FLOAT"}}}, {"name": "conv2d_51/Kernel", "op": "Const", "attr": {"dtype": {"type": "DT_FLOAT"}, "value": {"tensor": {"dtype": "DT_FLOAT", "tensorShape": {"dim": [{"size": "1"}, {"size": "1"}, {"size": "128"}, {"size": "64"}]}}}}}, {"name": "conv2d_51/Bias", "op": "Const", "attr": {"dtype": {"type": "DT_FLOAT"}, "value": {"tensor": {"dtype": "DT_FLOAT", "tensorShape": {"dim": [{"size": "64"}]}}}}}, {"name": "depthwise_conv2d_25/Kernel", "op": "Const", "attr": {"dtype": {"type": "DT_FLOAT"}, "value": {"tensor": {"dtype": "DT_FLOAT", "tensorShape": {"dim": [{"size": "3"}, {"size": "3"}, {"size": "64"}, {"size": "1"}]}}}}}, {"name": "conv2d_52/Kernel", "op": "Const", "attr": {"value": {"tensor": {"dtype": "DT_FLOAT", "tensorShape": {"dim": [{"size": "1"}, {"size": "1"}, {"size": "64"}, {"size": "128"}]}}}, "dtype": {"type": "DT_FLOAT"}}}, {"name": "conv2d_52/Bias", "op": "Const", "attr": {"value": {"tensor": {"dtype": "DT_FLOAT", "tensorShape": {"dim": [{"size": "128"}]}}}, "dtype": {"type": "DT_FLOAT"}}}, {"name": "conv_iris/Kernel", "op": "Const", "attr": {"value": {"tensor": {"dtype": "DT_FLOAT", "tensorShape": {"dim": [{"size": "2"}, {"size": "2"}, {"size": "128"}, {"size": "15"}]}}}, "dtype": {"type": "DT_FLOAT"}}}, {"name": "conv_iris/Bias", "op": "Const", "attr": {"dtype": {"type": "DT_FLOAT"}, "value": {"tensor": {"dtype": "DT_FLOAT", "tensorShape": {"dim": [{"size": "15"}]}}}}}, {"name": "output_iris/shape", "op": "Const", "attr": {"value": {"tensor": {"dtype": "DT_INT32", "tensorShape": {"dim": [{"size": "2"}]}}}, "dtype": {"type": "DT_INT32"}}}, {"name": "conv2d/conv2d", "op": "Conv2D", "input": ["input_1", "conv2d/Kernel"], "device": "/device:CPU:0", "attr": {"data_format": {"s": "TkhXQw=="}, "strides": {"list": {"i": ["1", "2", "2", "1"]}}, "explicit_paddings": {"list": {}}, "use_cudnn_on_gpu": {"b": true}, "padding": {"s": "U0FNRQ=="}, "dilations": {"list": {"i": ["1", "1", "1", "1"]}}, "T": {"type": "DT_FLOAT"}}}, {"name": "conv2d", "op": "Add", "input": ["conv2d/conv2d", "conv2d/Bias"], "attr": {"T": {"type": "DT_FLOAT"}}}, {"name": "p_re_lu/mul", "op": "Mul", "input": ["p_re_lu/p_re_lu/Alpha", "conv2d"], "attr": {"T": {"type": "DT_FLOAT"}}}, {"name": "p_re_lu/Maximum", "op": "Maximum", "input": ["p_re_lu/mul", "conv2d"], "attr": {"T": {"type": "DT_FLOAT"}}}, {"name": "conv2d_1/conv2d", "op": "Conv2D", "input": ["p_re_lu/Maximum", "conv2d_1/Kernel"], "device": "/device:CPU:0", "attr": {"dilations": {"list": {"i": ["1", "1", "1", "1"]}}, "T": {"type": "DT_FLOAT"}, "data_format": {"s": "TkhXQw=="}, "strides": {"list": {"i": ["1", "1", "1", "1"]}}, "use_cudnn_on_gpu": {"b": true}, "explicit_paddings": {"list": {}}, "padding": {"s": "VkFMSUQ="}}}, {"name": "conv2d_1", "op": "Add", "input": ["conv2d_1/conv2d", "conv2d_1/Bias"], "attr": {"T": {"type": "DT_FLOAT"}}}, {"name": "p_re_lu_1/mul", "op": "Mul", "input": ["p_re_lu_1/p_re_lu_1/Alpha", "conv2d_1"], "attr": {"T": {"type": "DT_FLOAT"}}}, {"name": "p_re_lu_1/Maximum", "op": "Maximum", "input": ["p_re_lu_1/mul", "conv2d_1"], "attr": {"T": {"type": "DT_FLOAT"}}}, {"name": "depthwise_conv2d/depthwise_conv2d", "op": "DepthwiseConv2dNative", "input": ["p_re_lu_1/Maximum", "depthwise_conv2d/Kernel"], "attr": {"padding": {"s": "U0FNRQ=="}, "dilations": {"list": {"i": ["1", "1", "1", "1"]}}, "T": {"type": "DT_FLOAT"}, "strides": {"list": {"i": ["1", "1", "1", "1"]}}, "data_format": {"s": "TkhXQw=="}, "explicit_paddings": {"list": {}}}}, {"name": "conv2d_2/conv2d", "op": "Conv2D", "input": ["depthwise_conv2d/depthwise_conv2d", "conv2d_2/Kernel"], "device": "/device:CPU:0", "attr": {"dilations": {"list": {"i": ["1", "1", "1", "1"]}}, "T": {"type": "DT_FLOAT"}, "strides": {"list": {"i": ["1", "1", "1", "1"]}}, "data_format": {"s": "TkhXQw=="}, "explicit_paddings": {"list": {}}, "use_cudnn_on_gpu": {"b": true}, "padding": {"s": "VkFMSUQ="}}}, {"name": "conv2d_2", "op": "Add", "input": ["conv2d_2/conv2d", "conv2d_2/Bias"], "attr": {"T": {"type": "DT_FLOAT"}}}, {"name": "add__xeno_compat__1", "op": "Add", "input": ["p_re_lu/Maximum", "conv2d_2"], "attr": {"T": {"type": "DT_FLOAT"}}}, {"name": "p_re_lu_2/mul", "op": "Mul", "input": ["p_re_lu_2/p_re_lu_2/Alpha", "add__xeno_compat__1"], "attr": {"T": {"type": "DT_FLOAT"}}}, {"name": "p_re_lu_2/Maximum", "op": "Maximum", "input": ["p_re_lu_2/mul", "add__xeno_compat__1"], "attr": {"T": {"type": "DT_FLOAT"}}}, {"name": "conv2d_3/conv2d", "op": "Conv2D", "input": ["p_re_lu_2/Maximum", "conv2d_3/Kernel"], "device": "/device:CPU:0", "attr": {"data_format": {"s": "TkhXQw=="}, "strides": {"list": {"i": ["1", "1", "1", "1"]}}, "use_cudnn_on_gpu": {"b": true}, "explicit_paddings": {"list": {}}, "padding": {"s": "VkFMSUQ="}, "dilations": {"list": {"i": ["1", "1", "1", "1"]}}, "T": {"type": "DT_FLOAT"}}}, {"name": "conv2d_3", "op": "Add", "input": ["conv2d_3/conv2d", "conv2d_3/Bias"], "attr": {"T": {"type": "DT_FLOAT"}}}, {"name": "p_re_lu_3/mul", "op": "Mul", "input": ["p_re_lu_3/p_re_lu_3/Alpha", "conv2d_3"], "attr": {"T": {"type": "DT_FLOAT"}}}, {"name": "p_re_lu_3/Maximum", "op": "Maximum", "input": ["p_re_lu_3/mul", "conv2d_3"], "attr": {"T": {"type": "DT_FLOAT"}}}, {"name": "depthwise_conv2d_1/depthwise_conv2d", "op": "DepthwiseConv2dNative", "input": ["p_re_lu_3/Maximum", "depthwise_conv2d_1/Kernel"], "attr": {"dilations": {"list": {"i": ["1", "1", "1", "1"]}}, "T": {"type": "DT_FLOAT"}, "strides": {"list": {"i": ["1", "1", "1", "1"]}}, "data_format": {"s": "TkhXQw=="}, "explicit_paddings": {"list": {}}, "padding": {"s": "U0FNRQ=="}}}, {"name": "conv2d_4/conv2d", "op": "Conv2D", "input": ["depthwise_conv2d_1/depthwise_conv2d", "conv2d_4/Kernel"], "device": "/device:CPU:0", "attr": {"dilations": {"list": {"i": ["1", "1", "1", "1"]}}, "T": {"type": "DT_FLOAT"}, "data_format": {"s": "TkhXQw=="}, "strides": {"list": {"i": ["1", "1", "1", "1"]}}, "use_cudnn_on_gpu": {"b": true}, "explicit_paddings": {"list": {}}, "padding": {"s": "VkFMSUQ="}}}, {"name": "conv2d_4", "op": "Add", "input": ["conv2d_4/conv2d", "conv2d_4/Bias"], "attr": {"T": {"type": "DT_FLOAT"}}}, {"name": "add_1__xeno_compat__1", "op": "Add", "input": ["p_re_lu_2/Maximum", "conv2d_4"], "attr": {"T": {"type": "DT_FLOAT"}}}, {"name": "p_re_lu_4/mul", "op": "Mul", "input": ["p_re_lu_4/p_re_lu_4/Alpha", "add_1__xeno_compat__1"], "attr": {"T": {"type": "DT_FLOAT"}}}, {"name": "p_re_lu_4/Maximum", "op": "Maximum", "input": ["p_re_lu_4/mul", "add_1__xeno_compat__1"], "attr": {"T": {"type": "DT_FLOAT"}}}, {"name": "conv2d_5/conv2d", "op": "Conv2D", "input": ["p_re_lu_4/Maximum", "conv2d_5/Kernel"], "device": "/device:CPU:0", "attr": {"padding": {"s": "VkFMSUQ="}, "dilations": {"list": {"i": ["1", "1", "1", "1"]}}, "T": {"type": "DT_FLOAT"}, "data_format": {"s": "TkhXQw=="}, "strides": {"list": {"i": ["1", "1", "1", "1"]}}, "use_cudnn_on_gpu": {"b": true}, "explicit_paddings": {"list": {}}}}, {"name": "conv2d_5", "op": "Add", "input": ["conv2d_5/conv2d", "conv2d_5/Bias"], "attr": {"T": {"type": "DT_FLOAT"}}}, {"name": "p_re_lu_5/mul", "op": "Mul", "input": ["p_re_lu_5/p_re_lu_5/Alpha", "conv2d_5"], "attr": {"T": {"type": "DT_FLOAT"}}}, {"name": "p_re_lu_5/Maximum", "op": "Maximum", "input": ["p_re_lu_5/mul", "conv2d_5"], "attr": {"T": {"type": "DT_FLOAT"}}}, {"name": "depthwise_conv2d_2/depthwise_conv2d", "op": "DepthwiseConv2dNative", "input": ["p_re_lu_5/Maximum", "depthwise_conv2d_2/Kernel"], "attr": {"dilations": {"list": {"i": ["1", "1", "1", "1"]}}, "T": {"type": "DT_FLOAT"}, "strides": {"list": {"i": ["1", "1", "1", "1"]}}, "data_format": {"s": "TkhXQw=="}, "explicit_paddings": {"list": {}}, "padding": {"s": "U0FNRQ=="}}}, {"name": "conv2d_6/conv2d", "op": "Conv2D", "input": ["depthwise_conv2d_2/depthwise_conv2d", "conv2d_6/Kernel"], "device": "/device:CPU:0", "attr": {"padding": {"s": "VkFMSUQ="}, "dilations": {"list": {"i": ["1", "1", "1", "1"]}}, "T": {"type": "DT_FLOAT"}, "data_format": {"s": "TkhXQw=="}, "strides": {"list": {"i": ["1", "1", "1", "1"]}}, "explicit_paddings": {"list": {}}, "use_cudnn_on_gpu": {"b": true}}}, {"name": "conv2d_6", "op": "Add", "input": ["conv2d_6/conv2d", "conv2d_6/Bias"], "attr": {"T": {"type": "DT_FLOAT"}}}, {"name": "add_2__xeno_compat__1", "op": "Add", "input": ["p_re_lu_4/Maximum", "conv2d_6"], "attr": {"T": {"type": "DT_FLOAT"}}}, {"name": "p_re_lu_6/mul", "op": "Mul", "input": ["p_re_lu_6/p_re_lu_6/Alpha", "add_2__xeno_compat__1"], "attr": {"T": {"type": "DT_FLOAT"}}}, {"name": "p_re_lu_6/Maximum", "op": "Maximum", "input": ["p_re_lu_6/mul", "add_2__xeno_compat__1"], "attr": {"T": {"type": "DT_FLOAT"}}}, {"name": "conv2d_7/conv2d", "op": "Conv2D", "input": ["p_re_lu_6/Maximum", "conv2d_7/Kernel"], "device": "/device:CPU:0", "attr": {"data_format": {"s": "TkhXQw=="}, "strides": {"list": {"i": ["1", "1", "1", "1"]}}, "use_cudnn_on_gpu": {"b": true}, "explicit_paddings": {"list": {}}, "padding": {"s": "VkFMSUQ="}, "dilations": {"list": {"i": ["1", "1", "1", "1"]}}, "T": {"type": "DT_FLOAT"}}}, {"name": "conv2d_7", "op": "Add", "input": ["conv2d_7/conv2d", "conv2d_7/Bias"], "attr": {"T": {"type": "DT_FLOAT"}}}, {"name": "p_re_lu_7/mul", "op": "Mul", "input": ["p_re_lu_7/p_re_lu_7/Alpha", "conv2d_7"], "attr": {"T": {"type": "DT_FLOAT"}}}, {"name": "p_re_lu_7/Maximum", "op": "Maximum", "input": ["p_re_lu_7/mul", "conv2d_7"], "attr": {"T": {"type": "DT_FLOAT"}}}, {"name": "depthwise_conv2d_3/depthwise_conv2d", "op": "DepthwiseConv2dNative", "input": ["p_re_lu_7/Maximum", "depthwise_conv2d_3/Kernel"], "attr": {"padding": {"s": "U0FNRQ=="}, "dilations": {"list": {"i": ["1", "1", "1", "1"]}}, "T": {"type": "DT_FLOAT"}, "data_format": {"s": "TkhXQw=="}, "strides": {"list": {"i": ["1", "1", "1", "1"]}}, "explicit_paddings": {"list": {}}}}, {"name": "conv2d_8/conv2d", "op": "Conv2D", "input": ["depthwise_conv2d_3/depthwise_conv2d", "conv2d_8/Kernel"], "device": "/device:CPU:0", "attr": {"dilations": {"list": {"i": ["1", "1", "1", "1"]}}, "T": {"type": "DT_FLOAT"}, "strides": {"list": {"i": ["1", "1", "1", "1"]}}, "data_format": {"s": "TkhXQw=="}, "explicit_paddings": {"list": {}}, "use_cudnn_on_gpu": {"b": true}, "padding": {"s": "VkFMSUQ="}}}, {"name": "conv2d_8", "op": "Add", "input": ["conv2d_8/conv2d", "conv2d_8/Bias"], "attr": {"T": {"type": "DT_FLOAT"}}}, {"name": "add_3__xeno_compat__1", "op": "Add", "input": ["p_re_lu_6/Maximum", "conv2d_8"], "attr": {"T": {"type": "DT_FLOAT"}}}, {"name": "p_re_lu_8/mul", "op": "Mul", "input": ["p_re_lu_8/p_re_lu_8/Alpha", "add_3__xeno_compat__1"], "attr": {"T": {"type": "DT_FLOAT"}}}, {"name": "p_re_lu_8/Maximum", "op": "Maximum", "input": ["p_re_lu_8/mul", "add_3__xeno_compat__1"], "attr": {"T": {"type": "DT_FLOAT"}}}, {"name": "max_pooling2d", "op": "MaxPool", "input": ["p_re_lu_8/Maximum"], "attr": {"T": {"type": "DT_FLOAT"}, "data_format": {"s": "TkhXQw=="}, "strides": {"list": {"i": ["1", "2", "2", "1"]}}, "ksize": {"list": {"i": ["1", "2", "2", "1"]}}, "padding": {"s": "VkFMSUQ="}}}, {"name": "conv2d_9/conv2d", "op": "Conv2D", "input": ["p_re_lu_8/Maximum", "conv2d_9/Kernel"], "device": "/device:CPU:0", "attr": {"dilations": {"list": {"i": ["1", "1", "1", "1"]}}, "T": {"type": "DT_FLOAT"}, "data_format": {"s": "TkhXQw=="}, "strides": {"list": {"i": ["1", "2", "2", "1"]}}, "use_cudnn_on_gpu": {"b": true}, "explicit_paddings": {"list": {}}, "padding": {"s": "VkFMSUQ="}}}, {"name": "channel_padding", "op": "Pad", "input": ["max_pooling2d", "channel_padding/Paddings"], "attr": {"T": {"type": "DT_FLOAT"}, "Tpaddings": {"type": "DT_INT32"}}}, {"name": "conv2d_9", "op": "Add", "input": ["conv2d_9/conv2d", "conv2d_9/Bias"], "attr": {"T": {"type": "DT_FLOAT"}}}, {"name": "p_re_lu_9/mul", "op": "Mul", "input": ["p_re_lu_9/p_re_lu_9/Alpha", "conv2d_9"], "attr": {"T": {"type": "DT_FLOAT"}}}, {"name": "p_re_lu_9/Maximum", "op": "Maximum", "input": ["p_re_lu_9/mul", "conv2d_9"], "attr": {"T": {"type": "DT_FLOAT"}}}, {"name": "depthwise_conv2d_4/depthwise_conv2d", "op": "DepthwiseConv2dNative", "input": ["p_re_lu_9/Maximum", "depthwise_conv2d_4/Kernel"], "attr": {"dilations": {"list": {"i": ["1", "1", "1", "1"]}}, "T": {"type": "DT_FLOAT"}, "strides": {"list": {"i": ["1", "1", "1", "1"]}}, "data_format": {"s": "TkhXQw=="}, "explicit_paddings": {"list": {}}, "padding": {"s": "U0FNRQ=="}}}, {"name": "conv2d_10/conv2d", "op": "Conv2D", "input": ["depthwise_conv2d_4/depthwise_conv2d", "conv2d_10/Kernel"], "device": "/device:CPU:0", "attr": {"strides": {"list": {"i": ["1", "1", "1", "1"]}}, "data_format": {"s": "TkhXQw=="}, "explicit_paddings": {"list": {}}, "use_cudnn_on_gpu": {"b": true}, "padding": {"s": "VkFMSUQ="}, "dilations": {"list": {"i": ["1", "1", "1", "1"]}}, "T": {"type": "DT_FLOAT"}}}, {"name": "conv2d_10", "op": "Add", "input": ["conv2d_10/conv2d", "conv2d_10/Bias"], "attr": {"T": {"type": "DT_FLOAT"}}}, {"name": "add_4__xeno_compat__1", "op": "Add", "input": ["channel_padding", "conv2d_10"], "attr": {"T": {"type": "DT_FLOAT"}}}, {"name": "p_re_lu_10/mul", "op": "Mul", "input": ["p_re_lu_10/p_re_lu_10/Alpha", "add_4__xeno_compat__1"], "attr": {"T": {"type": "DT_FLOAT"}}}, {"name": "p_re_lu_10/Maximum", "op": "Maximum", "input": ["p_re_lu_10/mul", "add_4__xeno_compat__1"], "attr": {"T": {"type": "DT_FLOAT"}}}, {"name": "conv2d_11/conv2d", "op": "Conv2D", "input": ["p_re_lu_10/Maximum", "conv2d_11/Kernel"], "device": "/device:CPU:0", "attr": {"padding": {"s": "VkFMSUQ="}, "dilations": {"list": {"i": ["1", "1", "1", "1"]}}, "T": {"type": "DT_FLOAT"}, "strides": {"list": {"i": ["1", "1", "1", "1"]}}, "data_format": {"s": "TkhXQw=="}, "use_cudnn_on_gpu": {"b": true}, "explicit_paddings": {"list": {}}}}, {"name": "conv2d_11", "op": "Add", "input": ["conv2d_11/conv2d", "conv2d_11/Bias"], "attr": {"T": {"type": "DT_FLOAT"}}}, {"name": "p_re_lu_11/mul", "op": "Mul", "input": ["p_re_lu_11/p_re_lu_11/Alpha", "conv2d_11"], "attr": {"T": {"type": "DT_FLOAT"}}}, {"name": "p_re_lu_11/Maximum", "op": "Maximum", "input": ["p_re_lu_11/mul", "conv2d_11"], "attr": {"T": {"type": "DT_FLOAT"}}}, {"name": "depthwise_conv2d_5/depthwise_conv2d", "op": "DepthwiseConv2dNative", "input": ["p_re_lu_11/Maximum", "depthwise_conv2d_5/Kernel"], "attr": {"dilations": {"list": {"i": ["1", "1", "1", "1"]}}, "T": {"type": "DT_FLOAT"}, "data_format": {"s": "TkhXQw=="}, "strides": {"list": {"i": ["1", "1", "1", "1"]}}, "explicit_paddings": {"list": {}}, "padding": {"s": "U0FNRQ=="}}}, {"name": "conv2d_12/conv2d", "op": "Conv2D", "input": ["depthwise_conv2d_5/depthwise_conv2d", "conv2d_12/Kernel"], "device": "/device:CPU:0", "attr": {"padding": {"s": "VkFMSUQ="}, "dilations": {"list": {"i": ["1", "1", "1", "1"]}}, "T": {"type": "DT_FLOAT"}, "strides": {"list": {"i": ["1", "1", "1", "1"]}}, "data_format": {"s": "TkhXQw=="}, "use_cudnn_on_gpu": {"b": true}, "explicit_paddings": {"list": {}}}}, {"name": "conv2d_12", "op": "Add", "input": ["conv2d_12/conv2d", "conv2d_12/Bias"], "attr": {"T": {"type": "DT_FLOAT"}}}, {"name": "add_5__xeno_compat__1", "op": "Add", "input": ["p_re_lu_10/Maximum", "conv2d_12"], "attr": {"T": {"type": "DT_FLOAT"}}}, {"name": "p_re_lu_12/mul", "op": "Mul", "input": ["p_re_lu_12/p_re_lu_12/Alpha", "add_5__xeno_compat__1"], "attr": {"T": {"type": "DT_FLOAT"}}}, {"name": "p_re_lu_12/Maximum", "op": "Maximum", "input": ["p_re_lu_12/mul", "add_5__xeno_compat__1"], "attr": {"T": {"type": "DT_FLOAT"}}}, {"name": "conv2d_13/conv2d", "op": "Conv2D", "input": ["p_re_lu_12/Maximum", "conv2d_13/Kernel"], "device": "/device:CPU:0", "attr": {"padding": {"s": "VkFMSUQ="}, "dilations": {"list": {"i": ["1", "1", "1", "1"]}}, "T": {"type": "DT_FLOAT"}, "strides": {"list": {"i": ["1", "1", "1", "1"]}}, "data_format": {"s": "TkhXQw=="}, "explicit_paddings": {"list": {}}, "use_cudnn_on_gpu": {"b": true}}}, {"name": "conv2d_13", "op": "Add", "input": ["conv2d_13/conv2d", "conv2d_13/Bias"], "attr": {"T": {"type": "DT_FLOAT"}}}, {"name": "p_re_lu_13/mul", "op": "Mul", "input": ["p_re_lu_13/p_re_lu_13/Alpha", "conv2d_13"], "attr": {"T": {"type": "DT_FLOAT"}}}, {"name": "p_re_lu_13/Maximum", "op": "Maximum", "input": ["p_re_lu_13/mul", "conv2d_13"], "attr": {"T": {"type": "DT_FLOAT"}}}, {"name": "depthwise_conv2d_6/depthwise_conv2d", "op": "DepthwiseConv2dNative", "input": ["p_re_lu_13/Maximum", "depthwise_conv2d_6/Kernel"], "attr": {"padding": {"s": "U0FNRQ=="}, "dilations": {"list": {"i": ["1", "1", "1", "1"]}}, "T": {"type": "DT_FLOAT"}, "strides": {"list": {"i": ["1", "1", "1", "1"]}}, "data_format": {"s": "TkhXQw=="}, "explicit_paddings": {"list": {}}}}, {"name": "conv2d_14/conv2d", "op": "Conv2D", "input": ["depthwise_conv2d_6/depthwise_conv2d", "conv2d_14/Kernel"], "device": "/device:CPU:0", "attr": {"dilations": {"list": {"i": ["1", "1", "1", "1"]}}, "T": {"type": "DT_FLOAT"}, "data_format": {"s": "TkhXQw=="}, "strides": {"list": {"i": ["1", "1", "1", "1"]}}, "use_cudnn_on_gpu": {"b": true}, "explicit_paddings": {"list": {}}, "padding": {"s": "VkFMSUQ="}}}, {"name": "conv2d_14", "op": "Add", "input": ["conv2d_14/conv2d", "conv2d_14/Bias"], "attr": {"T": {"type": "DT_FLOAT"}}}, {"name": "add_6__xeno_compat__1", "op": "Add", "input": ["p_re_lu_12/Maximum", "conv2d_14"], "attr": {"T": {"type": "DT_FLOAT"}}}, {"name": "p_re_lu_14/mul", "op": "Mul", "input": ["p_re_lu_14/p_re_lu_14/Alpha", "add_6__xeno_compat__1"], "attr": {"T": {"type": "DT_FLOAT"}}}, {"name": "p_re_lu_14/Maximum", "op": "Maximum", "input": ["p_re_lu_14/mul", "add_6__xeno_compat__1"], "attr": {"T": {"type": "DT_FLOAT"}}}, {"name": "conv2d_15/conv2d", "op": "Conv2D", "input": ["p_re_lu_14/Maximum", "conv2d_15/Kernel"], "device": "/device:CPU:0", "attr": {"dilations": {"list": {"i": ["1", "1", "1", "1"]}}, "T": {"type": "DT_FLOAT"}, "strides": {"list": {"i": ["1", "1", "1", "1"]}}, "data_format": {"s": "TkhXQw=="}, "use_cudnn_on_gpu": {"b": true}, "explicit_paddings": {"list": {}}, "padding": {"s": "VkFMSUQ="}}}, {"name": "conv2d_15", "op": "Add", "input": ["conv2d_15/conv2d", "conv2d_15/Bias"], "attr": {"T": {"type": "DT_FLOAT"}}}, {"name": "p_re_lu_15/mul", "op": "Mul", "input": ["p_re_lu_15/p_re_lu_15/Alpha", "conv2d_15"], "attr": {"T": {"type": "DT_FLOAT"}}}, {"name": "p_re_lu_15/Maximum", "op": "Maximum", "input": ["p_re_lu_15/mul", "conv2d_15"], "attr": {"T": {"type": "DT_FLOAT"}}}, {"name": "depthwise_conv2d_7/depthwise_conv2d", "op": "DepthwiseConv2dNative", "input": ["p_re_lu_15/Maximum", "depthwise_conv2d_7/Kernel"], "attr": {"dilations": {"list": {"i": ["1", "1", "1", "1"]}}, "T": {"type": "DT_FLOAT"}, "strides": {"list": {"i": ["1", "1", "1", "1"]}}, "data_format": {"s": "TkhXQw=="}, "explicit_paddings": {"list": {}}, "padding": {"s": "U0FNRQ=="}}}, {"name": "conv2d_16/conv2d", "op": "Conv2D", "input": ["depthwise_conv2d_7/depthwise_conv2d", "conv2d_16/Kernel"], "device": "/device:CPU:0", "attr": {"dilations": {"list": {"i": ["1", "1", "1", "1"]}}, "T": {"type": "DT_FLOAT"}, "strides": {"list": {"i": ["1", "1", "1", "1"]}}, "data_format": {"s": "TkhXQw=="}, "use_cudnn_on_gpu": {"b": true}, "explicit_paddings": {"list": {}}, "padding": {"s": "VkFMSUQ="}}}, {"name": "conv2d_16", "op": "Add", "input": ["conv2d_16/conv2d", "conv2d_16/Bias"], "attr": {"T": {"type": "DT_FLOAT"}}}, {"name": "add_7__xeno_compat__1", "op": "Add", "input": ["p_re_lu_14/Maximum", "conv2d_16"], "attr": {"T": {"type": "DT_FLOAT"}}}, {"name": "p_re_lu_16/mul", "op": "Mul", "input": ["p_re_lu_16/p_re_lu_16/Alpha", "add_7__xeno_compat__1"], "attr": {"T": {"type": "DT_FLOAT"}}}, {"name": "p_re_lu_16/Maximum", "op": "Maximum", "input": ["p_re_lu_16/mul", "add_7__xeno_compat__1"], "attr": {"T": {"type": "DT_FLOAT"}}}, {"name": "conv2d_17/conv2d", "op": "Conv2D", "input": ["p_re_lu_16/Maximum", "conv2d_17/Kernel"], "device": "/device:CPU:0", "attr": {"dilations": {"list": {"i": ["1", "1", "1", "1"]}}, "T": {"type": "DT_FLOAT"}, "data_format": {"s": "TkhXQw=="}, "strides": {"list": {"i": ["1", "1", "1", "1"]}}, "explicit_paddings": {"list": {}}, "use_cudnn_on_gpu": {"b": true}, "padding": {"s": "VkFMSUQ="}}}, {"name": "conv2d_17", "op": "Add", "input": ["conv2d_17/conv2d", "conv2d_17/Bias"], "attr": {"T": {"type": "DT_FLOAT"}}}, {"name": "p_re_lu_17/mul", "op": "Mul", "input": ["p_re_lu_17/p_re_lu_17/Alpha", "conv2d_17"], "attr": {"T": {"type": "DT_FLOAT"}}}, {"name": "p_re_lu_17/Maximum", "op": "Maximum", "input": ["p_re_lu_17/mul", "conv2d_17"], "attr": {"T": {"type": "DT_FLOAT"}}}, {"name": "depthwise_conv2d_8/depthwise_conv2d", "op": "DepthwiseConv2dNative", "input": ["p_re_lu_17/Maximum", "depthwise_conv2d_8/Kernel"], "attr": {"padding": {"s": "U0FNRQ=="}, "dilations": {"list": {"i": ["1", "1", "1", "1"]}}, "T": {"type": "DT_FLOAT"}, "data_format": {"s": "TkhXQw=="}, "strides": {"list": {"i": ["1", "1", "1", "1"]}}, "explicit_paddings": {"list": {}}}}, {"name": "conv2d_18/conv2d", "op": "Conv2D", "input": ["depthwise_conv2d_8/depthwise_conv2d", "conv2d_18/Kernel"], "device": "/device:CPU:0", "attr": {"dilations": {"list": {"i": ["1", "1", "1", "1"]}}, "T": {"type": "DT_FLOAT"}, "strides": {"list": {"i": ["1", "1", "1", "1"]}}, "data_format": {"s": "TkhXQw=="}, "explicit_paddings": {"list": {}}, "use_cudnn_on_gpu": {"b": true}, "padding": {"s": "VkFMSUQ="}}}, {"name": "conv2d_18", "op": "Add", "input": ["conv2d_18/conv2d", "conv2d_18/Bias"], "attr": {"T": {"type": "DT_FLOAT"}}}, {"name": "add_8__xeno_compat__1", "op": "Add", "input": ["p_re_lu_16/Maximum", "conv2d_18"], "attr": {"T": {"type": "DT_FLOAT"}}}, {"name": "p_re_lu_18/mul", "op": "Mul", "input": ["p_re_lu_18/p_re_lu_18/Alpha", "add_8__xeno_compat__1"], "attr": {"T": {"type": "DT_FLOAT"}}}, {"name": "p_re_lu_18/Maximum", "op": "Maximum", "input": ["p_re_lu_18/mul", "add_8__xeno_compat__1"], "attr": {"T": {"type": "DT_FLOAT"}}}, {"name": "max_pooling2d_1", "op": "MaxPool", "input": ["p_re_lu_18/Maximum"], "attr": {"ksize": {"list": {"i": ["1", "2", "2", "1"]}}, "padding": {"s": "VkFMSUQ="}, "T": {"type": "DT_FLOAT"}, "data_format": {"s": "TkhXQw=="}, "strides": {"list": {"i": ["1", "2", "2", "1"]}}}}, {"name": "conv2d_19/conv2d", "op": "Conv2D", "input": ["p_re_lu_18/Maximum", "conv2d_19/Kernel"], "device": "/device:CPU:0", "attr": {"dilations": {"list": {"i": ["1", "1", "1", "1"]}}, "T": {"type": "DT_FLOAT"}, "strides": {"list": {"i": ["1", "2", "2", "1"]}}, "data_format": {"s": "TkhXQw=="}, "explicit_paddings": {"list": {}}, "use_cudnn_on_gpu": {"b": true}, "padding": {"s": "VkFMSUQ="}}}, {"name": "conv2d_19", "op": "Add", "input": ["conv2d_19/conv2d", "conv2d_19/Bias"], "attr": {"T": {"type": "DT_FLOAT"}}}, {"name": "p_re_lu_19/mul", "op": "Mul", "input": ["p_re_lu_19/p_re_lu_19/Alpha", "conv2d_19"], "attr": {"T": {"type": "DT_FLOAT"}}}, {"name": "p_re_lu_19/Maximum", "op": "Maximum", "input": ["p_re_lu_19/mul", "conv2d_19"], "attr": {"T": {"type": "DT_FLOAT"}}}, {"name": "depthwise_conv2d_9/depthwise_conv2d", "op": "DepthwiseConv2dNative", "input": ["p_re_lu_19/Maximum", "depthwise_conv2d_9/Kernel"], "attr": {"padding": {"s": "U0FNRQ=="}, "dilations": {"list": {"i": ["1", "1", "1", "1"]}}, "T": {"type": "DT_FLOAT"}, "strides": {"list": {"i": ["1", "1", "1", "1"]}}, "data_format": {"s": "TkhXQw=="}, "explicit_paddings": {"list": {}}}}, {"name": "conv2d_20/conv2d", "op": "Conv2D", "input": ["depthwise_conv2d_9/depthwise_conv2d", "conv2d_20/Kernel"], "device": "/device:CPU:0", "attr": {"dilations": {"list": {"i": ["1", "1", "1", "1"]}}, "T": {"type": "DT_FLOAT"}, "data_format": {"s": "TkhXQw=="}, "strides": {"list": {"i": ["1", "1", "1", "1"]}}, "explicit_paddings": {"list": {}}, "use_cudnn_on_gpu": {"b": true}, "padding": {"s": "VkFMSUQ="}}}, {"name": "conv2d_20", "op": "Add", "input": ["conv2d_20/conv2d", "conv2d_20/Bias"], "attr": {"T": {"type": "DT_FLOAT"}}}, {"name": "add_9__xeno_compat__1", "op": "Add", "input": ["max_pooling2d_1", "conv2d_20"], "attr": {"T": {"type": "DT_FLOAT"}}}, {"name": "p_re_lu_20/mul", "op": "Mul", "input": ["p_re_lu_20/p_re_lu_20/Alpha", "add_9__xeno_compat__1"], "attr": {"T": {"type": "DT_FLOAT"}}}, {"name": "p_re_lu_20/Maximum", "op": "Maximum", "input": ["p_re_lu_20/mul", "add_9__xeno_compat__1"], "attr": {"T": {"type": "DT_FLOAT"}}}, {"name": "conv2d_21/conv2d", "op": "Conv2D", "input": ["p_re_lu_20/Maximum", "conv2d_21/Kernel"], "device": "/device:CPU:0", "attr": {"dilations": {"list": {"i": ["1", "1", "1", "1"]}}, "T": {"type": "DT_FLOAT"}, "data_format": {"s": "TkhXQw=="}, "strides": {"list": {"i": ["1", "1", "1", "1"]}}, "explicit_paddings": {"list": {}}, "use_cudnn_on_gpu": {"b": true}, "padding": {"s": "VkFMSUQ="}}}, {"name": "conv2d_37/conv2d", "op": "Conv2D", "input": ["p_re_lu_20/Maximum", "conv2d_37/Kernel"], "device": "/device:CPU:0", "attr": {"dilations": {"list": {"i": ["1", "1", "1", "1"]}}, "T": {"type": "DT_FLOAT"}, "data_format": {"s": "TkhXQw=="}, "strides": {"list": {"i": ["1", "1", "1", "1"]}}, "use_cudnn_on_gpu": {"b": true}, "explicit_paddings": {"list": {}}, "padding": {"s": "VkFMSUQ="}}}, {"name": "conv2d_21", "op": "Add", "input": ["conv2d_21/conv2d", "conv2d_21/Bias"], "attr": {"T": {"type": "DT_FLOAT"}}}, {"name": "conv2d_37", "op": "Add", "input": ["conv2d_37/conv2d", "conv2d_37/Bias"], "attr": {"T": {"type": "DT_FLOAT"}}}, {"name": "p_re_lu_21/mul", "op": "Mul", "input": ["p_re_lu_21/p_re_lu_21/Alpha", "conv2d_21"], "attr": {"T": {"type": "DT_FLOAT"}}}, {"name": "p_re_lu_37/mul", "op": "Mul", "input": ["p_re_lu_37/p_re_lu_37/Alpha", "conv2d_37"], "attr": {"T": {"type": "DT_FLOAT"}}}, {"name": "p_re_lu_21/Maximum", "op": "Maximum", "input": ["p_re_lu_21/mul", "conv2d_21"], "attr": {"T": {"type": "DT_FLOAT"}}}, {"name": "p_re_lu_37/Maximum", "op": "Maximum", "input": ["p_re_lu_37/mul", "conv2d_37"], "attr": {"T": {"type": "DT_FLOAT"}}}, {"name": "depthwise_conv2d_10/depthwise_conv2d", "op": "DepthwiseConv2dNative", "input": ["p_re_lu_21/Maximum", "depthwise_conv2d_10/Kernel"], "attr": {"dilations": {"list": {"i": ["1", "1", "1", "1"]}}, "T": {"type": "DT_FLOAT"}, "strides": {"list": {"i": ["1", "1", "1", "1"]}}, "data_format": {"s": "TkhXQw=="}, "explicit_paddings": {"list": {}}, "padding": {"s": "U0FNRQ=="}}}, {"name": "depthwise_conv2d_18/depthwise_conv2d", "op": "DepthwiseConv2dNative", "input": ["p_re_lu_37/Maximum", "depthwise_conv2d_18/Kernel"], "attr": {"dilations": {"list": {"i": ["1", "1", "1", "1"]}}, "T": {"type": "DT_FLOAT"}, "data_format": {"s": "TkhXQw=="}, "strides": {"list": {"i": ["1", "1", "1", "1"]}}, "explicit_paddings": {"list": {}}, "padding": {"s": "U0FNRQ=="}}}, {"name": "conv2d_22/conv2d", "op": "Conv2D", "input": ["depthwise_conv2d_10/depthwise_conv2d", "conv2d_22/Kernel"], "device": "/device:CPU:0", "attr": {"T": {"type": "DT_FLOAT"}, "data_format": {"s": "TkhXQw=="}, "strides": {"list": {"i": ["1", "1", "1", "1"]}}, "explicit_paddings": {"list": {}}, "use_cudnn_on_gpu": {"b": true}, "padding": {"s": "VkFMSUQ="}, "dilations": {"list": {"i": ["1", "1", "1", "1"]}}}}, {"name": "conv2d_38/conv2d", "op": "Conv2D", "input": ["depthwise_conv2d_18/depthwise_conv2d", "conv2d_38/Kernel"], "device": "/device:CPU:0", "attr": {"dilations": {"list": {"i": ["1", "1", "1", "1"]}}, "T": {"type": "DT_FLOAT"}, "strides": {"list": {"i": ["1", "1", "1", "1"]}}, "data_format": {"s": "TkhXQw=="}, "use_cudnn_on_gpu": {"b": true}, "explicit_paddings": {"list": {}}, "padding": {"s": "VkFMSUQ="}}}, {"name": "conv2d_22", "op": "Add", "input": ["conv2d_22/conv2d", "conv2d_22/Bias"], "attr": {"T": {"type": "DT_FLOAT"}}}, {"name": "conv2d_38", "op": "Add", "input": ["conv2d_38/conv2d", "conv2d_38/Bias"], "attr": {"T": {"type": "DT_FLOAT"}}}, {"name": "add_10__xeno_compat__1", "op": "Add", "input": ["p_re_lu_20/Maximum", "conv2d_22"], "attr": {"T": {"type": "DT_FLOAT"}}}, {"name": "add_18__xeno_compat__1", "op": "Add", "input": ["p_re_lu_20/Maximum", "conv2d_38"], "attr": {"T": {"type": "DT_FLOAT"}}}, {"name": "p_re_lu_22/mul", "op": "Mul", "input": ["p_re_lu_22/p_re_lu_22/Alpha", "add_10__xeno_compat__1"], "attr": {"T": {"type": "DT_FLOAT"}}}, {"name": "p_re_lu_38/mul", "op": "Mul", "input": ["p_re_lu_38/p_re_lu_38/Alpha", "add_18__xeno_compat__1"], "attr": {"T": {"type": "DT_FLOAT"}}}, {"name": "p_re_lu_22/Maximum", "op": "Maximum", "input": ["p_re_lu_22/mul", "add_10__xeno_compat__1"], "attr": {"T": {"type": "DT_FLOAT"}}}, {"name": "p_re_lu_38/Maximum", "op": "Maximum", "input": ["p_re_lu_38/mul", "add_18__xeno_compat__1"], "attr": {"T": {"type": "DT_FLOAT"}}}, {"name": "conv2d_23/conv2d", "op": "Conv2D", "input": ["p_re_lu_22/Maximum", "conv2d_23/Kernel"], "device": "/device:CPU:0", "attr": {"padding": {"s": "VkFMSUQ="}, "dilations": {"list": {"i": ["1", "1", "1", "1"]}}, "T": {"type": "DT_FLOAT"}, "data_format": {"s": "TkhXQw=="}, "strides": {"list": {"i": ["1", "1", "1", "1"]}}, "use_cudnn_on_gpu": {"b": true}, "explicit_paddings": {"list": {}}}}, {"name": "conv2d_39/conv2d", "op": "Conv2D", "input": ["p_re_lu_38/Maximum", "conv2d_39/Kernel"], "device": "/device:CPU:0", "attr": {"padding": {"s": "VkFMSUQ="}, "dilations": {"list": {"i": ["1", "1", "1", "1"]}}, "T": {"type": "DT_FLOAT"}, "data_format": {"s": "TkhXQw=="}, "strides": {"list": {"i": ["1", "1", "1", "1"]}}, "explicit_paddings": {"list": {}}, "use_cudnn_on_gpu": {"b": true}}}, {"name": "conv2d_23", "op": "Add", "input": ["conv2d_23/conv2d", "conv2d_23/Bias"], "attr": {"T": {"type": "DT_FLOAT"}}}, {"name": "conv2d_39", "op": "Add", "input": ["conv2d_39/conv2d", "conv2d_39/Bias"], "attr": {"T": {"type": "DT_FLOAT"}}}, {"name": "p_re_lu_23/mul", "op": "Mul", "input": ["p_re_lu_23/p_re_lu_23/Alpha", "conv2d_23"], "attr": {"T": {"type": "DT_FLOAT"}}}, {"name": "p_re_lu_39/mul", "op": "Mul", "input": ["p_re_lu_39/p_re_lu_39/Alpha", "conv2d_39"], "attr": {"T": {"type": "DT_FLOAT"}}}, {"name": "p_re_lu_23/Maximum", "op": "Maximum", "input": ["p_re_lu_23/mul", "conv2d_23"], "attr": {"T": {"type": "DT_FLOAT"}}}, {"name": "p_re_lu_39/Maximum", "op": "Maximum", "input": ["p_re_lu_39/mul", "conv2d_39"], "attr": {"T": {"type": "DT_FLOAT"}}}, {"name": "depthwise_conv2d_11/depthwise_conv2d", "op": "DepthwiseConv2dNative", "input": ["p_re_lu_23/Maximum", "depthwise_conv2d_11/Kernel"], "attr": {"data_format": {"s": "TkhXQw=="}, "strides": {"list": {"i": ["1", "1", "1", "1"]}}, "explicit_paddings": {"list": {}}, "padding": {"s": "U0FNRQ=="}, "dilations": {"list": {"i": ["1", "1", "1", "1"]}}, "T": {"type": "DT_FLOAT"}}}, {"name": "depthwise_conv2d_19/depthwise_conv2d", "op": "DepthwiseConv2dNative", "input": ["p_re_lu_39/Maximum", "depthwise_conv2d_19/Kernel"], "attr": {"dilations": {"list": {"i": ["1", "1", "1", "1"]}}, "T": {"type": "DT_FLOAT"}, "strides": {"list": {"i": ["1", "1", "1", "1"]}}, "data_format": {"s": "TkhXQw=="}, "explicit_paddings": {"list": {}}, "padding": {"s": "U0FNRQ=="}}}, {"name": "conv2d_24/conv2d", "op": "Conv2D", "input": ["depthwise_conv2d_11/depthwise_conv2d", "conv2d_24/Kernel"], "device": "/device:CPU:0", "attr": {"padding": {"s": "VkFMSUQ="}, "dilations": {"list": {"i": ["1", "1", "1", "1"]}}, "T": {"type": "DT_FLOAT"}, "data_format": {"s": "TkhXQw=="}, "strides": {"list": {"i": ["1", "1", "1", "1"]}}, "use_cudnn_on_gpu": {"b": true}, "explicit_paddings": {"list": {}}}}, {"name": "conv2d_40/conv2d", "op": "Conv2D", "input": ["depthwise_conv2d_19/depthwise_conv2d", "conv2d_40/Kernel"], "device": "/device:CPU:0", "attr": {"T": {"type": "DT_FLOAT"}, "data_format": {"s": "TkhXQw=="}, "strides": {"list": {"i": ["1", "1", "1", "1"]}}, "explicit_paddings": {"list": {}}, "use_cudnn_on_gpu": {"b": true}, "padding": {"s": "VkFMSUQ="}, "dilations": {"list": {"i": ["1", "1", "1", "1"]}}}}, {"name": "conv2d_24", "op": "Add", "input": ["conv2d_24/conv2d", "conv2d_24/Bias"], "attr": {"T": {"type": "DT_FLOAT"}}}, {"name": "conv2d_40", "op": "Add", "input": ["conv2d_40/conv2d", "conv2d_40/Bias"], "attr": {"T": {"type": "DT_FLOAT"}}}, {"name": "add_11__xeno_compat__1", "op": "Add", "input": ["p_re_lu_22/Maximum", "conv2d_24"], "attr": {"T": {"type": "DT_FLOAT"}}}, {"name": "add_19__xeno_compat__1", "op": "Add", "input": ["p_re_lu_38/Maximum", "conv2d_40"], "attr": {"T": {"type": "DT_FLOAT"}}}, {"name": "p_re_lu_24/mul", "op": "Mul", "input": ["p_re_lu_24/p_re_lu_24/Alpha", "add_11__xeno_compat__1"], "attr": {"T": {"type": "DT_FLOAT"}}}, {"name": "p_re_lu_40/mul", "op": "Mul", "input": ["p_re_lu_40/p_re_lu_40/Alpha", "add_19__xeno_compat__1"], "attr": {"T": {"type": "DT_FLOAT"}}}, {"name": "p_re_lu_24/Maximum", "op": "Maximum", "input": ["p_re_lu_24/mul", "add_11__xeno_compat__1"], "attr": {"T": {"type": "DT_FLOAT"}}}, {"name": "p_re_lu_40/Maximum", "op": "Maximum", "input": ["p_re_lu_40/mul", "add_19__xeno_compat__1"], "attr": {"T": {"type": "DT_FLOAT"}}}, {"name": "max_pooling2d_2", "op": "MaxPool", "input": ["p_re_lu_24/Maximum"], "attr": {"ksize": {"list": {"i": ["1", "2", "2", "1"]}}, "padding": {"s": "VkFMSUQ="}, "T": {"type": "DT_FLOAT"}, "strides": {"list": {"i": ["1", "2", "2", "1"]}}, "data_format": {"s": "TkhXQw=="}}}, {"name": "conv2d_25/conv2d", "op": "Conv2D", "input": ["p_re_lu_24/Maximum", "conv2d_25/Kernel"], "device": "/device:CPU:0", "attr": {"T": {"type": "DT_FLOAT"}, "data_format": {"s": "TkhXQw=="}, "strides": {"list": {"i": ["1", "2", "2", "1"]}}, "use_cudnn_on_gpu": {"b": true}, "explicit_paddings": {"list": {}}, "padding": {"s": "VkFMSUQ="}, "dilations": {"list": {"i": ["1", "1", "1", "1"]}}}}, {"name": "max_pooling2d_4", "op": "MaxPool", "input": ["p_re_lu_40/Maximum"], "attr": {"ksize": {"list": {"i": ["1", "2", "2", "1"]}}, "padding": {"s": "VkFMSUQ="}, "T": {"type": "DT_FLOAT"}, "strides": {"list": {"i": ["1", "2", "2", "1"]}}, "data_format": {"s": "TkhXQw=="}}}, {"name": "conv2d_41/conv2d", "op": "Conv2D", "input": ["p_re_lu_40/Maximum", "conv2d_41/Kernel"], "device": "/device:CPU:0", "attr": {"padding": {"s": "VkFMSUQ="}, "dilations": {"list": {"i": ["1", "1", "1", "1"]}}, "T": {"type": "DT_FLOAT"}, "data_format": {"s": "TkhXQw=="}, "strides": {"list": {"i": ["1", "2", "2", "1"]}}, "use_cudnn_on_gpu": {"b": true}, "explicit_paddings": {"list": {}}}}, {"name": "conv2d_25", "op": "Add", "input": ["conv2d_25/conv2d", "conv2d_25/Bias"], "attr": {"T": {"type": "DT_FLOAT"}}}, {"name": "conv2d_41", "op": "Add", "input": ["conv2d_41/conv2d", "conv2d_41/Bias"], "attr": {"T": {"type": "DT_FLOAT"}}}, {"name": "p_re_lu_25/mul", "op": "Mul", "input": ["p_re_lu_25/p_re_lu_25/Alpha", "conv2d_25"], "attr": {"T": {"type": "DT_FLOAT"}}}, {"name": "p_re_lu_41/mul", "op": "Mul", "input": ["p_re_lu_41/p_re_lu_41/Alpha", "conv2d_41"], "attr": {"T": {"type": "DT_FLOAT"}}}, {"name": "p_re_lu_25/Maximum", "op": "Maximum", "input": ["p_re_lu_25/mul", "conv2d_25"], "attr": {"T": {"type": "DT_FLOAT"}}}, {"name": "p_re_lu_41/Maximum", "op": "Maximum", "input": ["p_re_lu_41/mul", "conv2d_41"], "attr": {"T": {"type": "DT_FLOAT"}}}, {"name": "depthwise_conv2d_12/depthwise_conv2d", "op": "DepthwiseConv2dNative", "input": ["p_re_lu_25/Maximum", "depthwise_conv2d_12/Kernel"], "attr": {"dilations": {"list": {"i": ["1", "1", "1", "1"]}}, "T": {"type": "DT_FLOAT"}, "strides": {"list": {"i": ["1", "1", "1", "1"]}}, "data_format": {"s": "TkhXQw=="}, "explicit_paddings": {"list": {}}, "padding": {"s": "U0FNRQ=="}}}, {"name": "depthwise_conv2d_20/depthwise_conv2d", "op": "DepthwiseConv2dNative", "input": ["p_re_lu_41/Maximum", "depthwise_conv2d_20/Kernel"], "attr": {"padding": {"s": "U0FNRQ=="}, "dilations": {"list": {"i": ["1", "1", "1", "1"]}}, "T": {"type": "DT_FLOAT"}, "data_format": {"s": "TkhXQw=="}, "strides": {"list": {"i": ["1", "1", "1", "1"]}}, "explicit_paddings": {"list": {}}}}, {"name": "conv2d_26/conv2d", "op": "Conv2D", "input": ["depthwise_conv2d_12/depthwise_conv2d", "conv2d_26/Kernel"], "device": "/device:CPU:0", "attr": {"dilations": {"list": {"i": ["1", "1", "1", "1"]}}, "T": {"type": "DT_FLOAT"}, "strides": {"list": {"i": ["1", "1", "1", "1"]}}, "data_format": {"s": "TkhXQw=="}, "use_cudnn_on_gpu": {"b": true}, "explicit_paddings": {"list": {}}, "padding": {"s": "VkFMSUQ="}}}, {"name": "conv2d_42/conv2d", "op": "Conv2D", "input": ["depthwise_conv2d_20/depthwise_conv2d", "conv2d_42/Kernel"], "device": "/device:CPU:0", "attr": {"T": {"type": "DT_FLOAT"}, "strides": {"list": {"i": ["1", "1", "1", "1"]}}, "data_format": {"s": "TkhXQw=="}, "explicit_paddings": {"list": {}}, "use_cudnn_on_gpu": {"b": true}, "padding": {"s": "VkFMSUQ="}, "dilations": {"list": {"i": ["1", "1", "1", "1"]}}}}, {"name": "conv2d_26", "op": "Add", "input": ["conv2d_26/conv2d", "conv2d_26/Bias"], "attr": {"T": {"type": "DT_FLOAT"}}}, {"name": "conv2d_42", "op": "Add", "input": ["conv2d_42/conv2d", "conv2d_42/Bias"], "attr": {"T": {"type": "DT_FLOAT"}}}, {"name": "add_12__xeno_compat__1", "op": "Add", "input": ["max_pooling2d_2", "conv2d_26"], "attr": {"T": {"type": "DT_FLOAT"}}}, {"name": "add_20__xeno_compat__1", "op": "Add", "input": ["max_pooling2d_4", "conv2d_42"], "attr": {"T": {"type": "DT_FLOAT"}}}, {"name": "p_re_lu_26/mul", "op": "Mul", "input": ["p_re_lu_26/p_re_lu_26/Alpha", "add_12__xeno_compat__1"], "attr": {"T": {"type": "DT_FLOAT"}}}, {"name": "p_re_lu_42/mul", "op": "Mul", "input": ["p_re_lu_42/p_re_lu_42/Alpha", "add_20__xeno_compat__1"], "attr": {"T": {"type": "DT_FLOAT"}}}, {"name": "p_re_lu_26/Maximum", "op": "Maximum", "input": ["p_re_lu_26/mul", "add_12__xeno_compat__1"], "attr": {"T": {"type": "DT_FLOAT"}}}, {"name": "p_re_lu_42/Maximum", "op": "Maximum", "input": ["p_re_lu_42/mul", "add_20__xeno_compat__1"], "attr": {"T": {"type": "DT_FLOAT"}}}, {"name": "conv2d_27/conv2d", "op": "Conv2D", "input": ["p_re_lu_26/Maximum", "conv2d_27/Kernel"], "device": "/device:CPU:0", "attr": {"dilations": {"list": {"i": ["1", "1", "1", "1"]}}, "T": {"type": "DT_FLOAT"}, "strides": {"list": {"i": ["1", "1", "1", "1"]}}, "data_format": {"s": "TkhXQw=="}, "use_cudnn_on_gpu": {"b": true}, "explicit_paddings": {"list": {}}, "padding": {"s": "VkFMSUQ="}}}, {"name": "conv2d_43/conv2d", "op": "Conv2D", "input": ["p_re_lu_42/Maximum", "conv2d_43/Kernel"], "device": "/device:CPU:0", "attr": {"dilations": {"list": {"i": ["1", "1", "1", "1"]}}, "T": {"type": "DT_FLOAT"}, "data_format": {"s": "TkhXQw=="}, "strides": {"list": {"i": ["1", "1", "1", "1"]}}, "use_cudnn_on_gpu": {"b": true}, "explicit_paddings": {"list": {}}, "padding": {"s": "VkFMSUQ="}}}, {"name": "conv2d_27", "op": "Add", "input": ["conv2d_27/conv2d", "conv2d_27/Bias"], "attr": {"T": {"type": "DT_FLOAT"}}}, {"name": "conv2d_43", "op": "Add", "input": ["conv2d_43/conv2d", "conv2d_43/Bias"], "attr": {"T": {"type": "DT_FLOAT"}}}, {"name": "p_re_lu_27/mul", "op": "Mul", "input": ["p_re_lu_27/p_re_lu_27/Alpha", "conv2d_27"], "attr": {"T": {"type": "DT_FLOAT"}}}, {"name": "p_re_lu_43/mul", "op": "Mul", "input": ["p_re_lu_43/p_re_lu_43/Alpha", "conv2d_43"], "attr": {"T": {"type": "DT_FLOAT"}}}, {"name": "p_re_lu_27/Maximum", "op": "Maximum", "input": ["p_re_lu_27/mul", "conv2d_27"], "attr": {"T": {"type": "DT_FLOAT"}}}, {"name": "p_re_lu_43/Maximum", "op": "Maximum", "input": ["p_re_lu_43/mul", "conv2d_43"], "attr": {"T": {"type": "DT_FLOAT"}}}, {"name": "depthwise_conv2d_13/depthwise_conv2d", "op": "DepthwiseConv2dNative", "input": ["p_re_lu_27/Maximum", "depthwise_conv2d_13/Kernel"], "attr": {"T": {"type": "DT_FLOAT"}, "data_format": {"s": "TkhXQw=="}, "strides": {"list": {"i": ["1", "1", "1", "1"]}}, "explicit_paddings": {"list": {}}, "padding": {"s": "U0FNRQ=="}, "dilations": {"list": {"i": ["1", "1", "1", "1"]}}}}, {"name": "depthwise_conv2d_21/depthwise_conv2d", "op": "DepthwiseConv2dNative", "input": ["p_re_lu_43/Maximum", "depthwise_conv2d_21/Kernel"], "attr": {"T": {"type": "DT_FLOAT"}, "data_format": {"s": "TkhXQw=="}, "strides": {"list": {"i": ["1", "1", "1", "1"]}}, "explicit_paddings": {"list": {}}, "padding": {"s": "U0FNRQ=="}, "dilations": {"list": {"i": ["1", "1", "1", "1"]}}}}, {"name": "conv2d_28/conv2d", "op": "Conv2D", "input": ["depthwise_conv2d_13/depthwise_conv2d", "conv2d_28/Kernel"], "device": "/device:CPU:0", "attr": {"dilations": {"list": {"i": ["1", "1", "1", "1"]}}, "T": {"type": "DT_FLOAT"}, "data_format": {"s": "TkhXQw=="}, "strides": {"list": {"i": ["1", "1", "1", "1"]}}, "explicit_paddings": {"list": {}}, "use_cudnn_on_gpu": {"b": true}, "padding": {"s": "VkFMSUQ="}}}, {"name": "conv2d_44/conv2d", "op": "Conv2D", "input": ["depthwise_conv2d_21/depthwise_conv2d", "conv2d_44/Kernel"], "device": "/device:CPU:0", "attr": {"dilations": {"list": {"i": ["1", "1", "1", "1"]}}, "T": {"type": "DT_FLOAT"}, "data_format": {"s": "TkhXQw=="}, "strides": {"list": {"i": ["1", "1", "1", "1"]}}, "explicit_paddings": {"list": {}}, "use_cudnn_on_gpu": {"b": true}, "padding": {"s": "VkFMSUQ="}}}, {"name": "conv2d_28", "op": "Add", "input": ["conv2d_28/conv2d", "conv2d_28/Bias"], "attr": {"T": {"type": "DT_FLOAT"}}}, {"name": "conv2d_44", "op": "Add", "input": ["conv2d_44/conv2d", "conv2d_44/Bias"], "attr": {"T": {"type": "DT_FLOAT"}}}, {"name": "add_13__xeno_compat__1", "op": "Add", "input": ["p_re_lu_26/Maximum", "conv2d_28"], "attr": {"T": {"type": "DT_FLOAT"}}}, {"name": "add_21__xeno_compat__1", "op": "Add", "input": ["p_re_lu_42/Maximum", "conv2d_44"], "attr": {"T": {"type": "DT_FLOAT"}}}, {"name": "p_re_lu_28/mul", "op": "Mul", "input": ["p_re_lu_28/p_re_lu_28/Alpha", "add_13__xeno_compat__1"], "attr": {"T": {"type": "DT_FLOAT"}}}, {"name": "p_re_lu_44/mul", "op": "Mul", "input": ["p_re_lu_44/p_re_lu_44/Alpha", "add_21__xeno_compat__1"], "attr": {"T": {"type": "DT_FLOAT"}}}, {"name": "p_re_lu_28/Maximum", "op": "Maximum", "input": ["p_re_lu_28/mul", "add_13__xeno_compat__1"], "attr": {"T": {"type": "DT_FLOAT"}}}, {"name": "p_re_lu_44/Maximum", "op": "Maximum", "input": ["p_re_lu_44/mul", "add_21__xeno_compat__1"], "attr": {"T": {"type": "DT_FLOAT"}}}, {"name": "conv2d_29/conv2d", "op": "Conv2D", "input": ["p_re_lu_28/Maximum", "conv2d_29/Kernel"], "device": "/device:CPU:0", "attr": {"dilations": {"list": {"i": ["1", "1", "1", "1"]}}, "T": {"type": "DT_FLOAT"}, "data_format": {"s": "TkhXQw=="}, "strides": {"list": {"i": ["1", "1", "1", "1"]}}, "use_cudnn_on_gpu": {"b": true}, "explicit_paddings": {"list": {}}, "padding": {"s": "VkFMSUQ="}}}, {"name": "conv2d_45/conv2d", "op": "Conv2D", "input": ["p_re_lu_44/Maximum", "conv2d_45/Kernel"], "device": "/device:CPU:0", "attr": {"padding": {"s": "VkFMSUQ="}, "dilations": {"list": {"i": ["1", "1", "1", "1"]}}, "T": {"type": "DT_FLOAT"}, "data_format": {"s": "TkhXQw=="}, "strides": {"list": {"i": ["1", "1", "1", "1"]}}, "use_cudnn_on_gpu": {"b": true}, "explicit_paddings": {"list": {}}}}, {"name": "conv2d_29", "op": "Add", "input": ["conv2d_29/conv2d", "conv2d_29/Bias"], "attr": {"T": {"type": "DT_FLOAT"}}}, {"name": "conv2d_45", "op": "Add", "input": ["conv2d_45/conv2d", "conv2d_45/Bias"], "attr": {"T": {"type": "DT_FLOAT"}}}, {"name": "p_re_lu_29/mul", "op": "Mul", "input": ["p_re_lu_29/p_re_lu_29/Alpha", "conv2d_29"], "attr": {"T": {"type": "DT_FLOAT"}}}, {"name": "p_re_lu_45/mul", "op": "Mul", "input": ["p_re_lu_45/p_re_lu_45/Alpha", "conv2d_45"], "attr": {"T": {"type": "DT_FLOAT"}}}, {"name": "p_re_lu_29/Maximum", "op": "Maximum", "input": ["p_re_lu_29/mul", "conv2d_29"], "attr": {"T": {"type": "DT_FLOAT"}}}, {"name": "p_re_lu_45/Maximum", "op": "Maximum", "input": ["p_re_lu_45/mul", "conv2d_45"], "attr": {"T": {"type": "DT_FLOAT"}}}, {"name": "depthwise_conv2d_14/depthwise_conv2d", "op": "DepthwiseConv2dNative", "input": ["p_re_lu_29/Maximum", "depthwise_conv2d_14/Kernel"], "attr": {"dilations": {"list": {"i": ["1", "1", "1", "1"]}}, "T": {"type": "DT_FLOAT"}, "strides": {"list": {"i": ["1", "1", "1", "1"]}}, "data_format": {"s": "TkhXQw=="}, "explicit_paddings": {"list": {}}, "padding": {"s": "U0FNRQ=="}}}, {"name": "depthwise_conv2d_22/depthwise_conv2d", "op": "DepthwiseConv2dNative", "input": ["p_re_lu_45/Maximum", "depthwise_conv2d_22/Kernel"], "attr": {"dilations": {"list": {"i": ["1", "1", "1", "1"]}}, "T": {"type": "DT_FLOAT"}, "strides": {"list": {"i": ["1", "1", "1", "1"]}}, "data_format": {"s": "TkhXQw=="}, "explicit_paddings": {"list": {}}, "padding": {"s": "U0FNRQ=="}}}, {"name": "conv2d_30/conv2d", "op": "Conv2D", "input": ["depthwise_conv2d_14/depthwise_conv2d", "conv2d_30/Kernel"], "device": "/device:CPU:0", "attr": {"dilations": {"list": {"i": ["1", "1", "1", "1"]}}, "T": {"type": "DT_FLOAT"}, "data_format": {"s": "TkhXQw=="}, "strides": {"list": {"i": ["1", "1", "1", "1"]}}, "explicit_paddings": {"list": {}}, "use_cudnn_on_gpu": {"b": true}, "padding": {"s": "VkFMSUQ="}}}, {"name": "conv2d_46/conv2d", "op": "Conv2D", "input": ["depthwise_conv2d_22/depthwise_conv2d", "conv2d_46/Kernel"], "device": "/device:CPU:0", "attr": {"dilations": {"list": {"i": ["1", "1", "1", "1"]}}, "T": {"type": "DT_FLOAT"}, "strides": {"list": {"i": ["1", "1", "1", "1"]}}, "data_format": {"s": "TkhXQw=="}, "use_cudnn_on_gpu": {"b": true}, "explicit_paddings": {"list": {}}, "padding": {"s": "VkFMSUQ="}}}, {"name": "conv2d_30", "op": "Add", "input": ["conv2d_30/conv2d", "conv2d_30/Bias"], "attr": {"T": {"type": "DT_FLOAT"}}}, {"name": "conv2d_46", "op": "Add", "input": ["conv2d_46/conv2d", "conv2d_46/Bias"], "attr": {"T": {"type": "DT_FLOAT"}}}, {"name": "add_14__xeno_compat__1", "op": "Add", "input": ["p_re_lu_28/Maximum", "conv2d_30"], "attr": {"T": {"type": "DT_FLOAT"}}}, {"name": "add_22__xeno_compat__1", "op": "Add", "input": ["p_re_lu_44/Maximum", "conv2d_46"], "attr": {"T": {"type": "DT_FLOAT"}}}, {"name": "p_re_lu_30/mul", "op": "Mul", "input": ["p_re_lu_30/p_re_lu_30/Alpha", "add_14__xeno_compat__1"], "attr": {"T": {"type": "DT_FLOAT"}}}, {"name": "p_re_lu_46/mul", "op": "Mul", "input": ["p_re_lu_46/p_re_lu_46/Alpha", "add_22__xeno_compat__1"], "attr": {"T": {"type": "DT_FLOAT"}}}, {"name": "p_re_lu_30/Maximum", "op": "Maximum", "input": ["p_re_lu_30/mul", "add_14__xeno_compat__1"], "attr": {"T": {"type": "DT_FLOAT"}}}, {"name": "p_re_lu_46/Maximum", "op": "Maximum", "input": ["p_re_lu_46/mul", "add_22__xeno_compat__1"], "attr": {"T": {"type": "DT_FLOAT"}}}, {"name": "max_pooling2d_3", "op": "MaxPool", "input": ["p_re_lu_30/Maximum"], "attr": {"T": {"type": "DT_FLOAT"}, "data_format": {"s": "TkhXQw=="}, "strides": {"list": {"i": ["1", "2", "2", "1"]}}, "ksize": {"list": {"i": ["1", "2", "2", "1"]}}, "padding": {"s": "VkFMSUQ="}}}, {"name": "conv2d_31/conv2d", "op": "Conv2D", "input": ["p_re_lu_30/Maximum", "conv2d_31/Kernel"], "device": "/device:CPU:0", "attr": {"dilations": {"list": {"i": ["1", "1", "1", "1"]}}, "T": {"type": "DT_FLOAT"}, "data_format": {"s": "TkhXQw=="}, "strides": {"list": {"i": ["1", "2", "2", "1"]}}, "explicit_paddings": {"list": {}}, "use_cudnn_on_gpu": {"b": true}, "padding": {"s": "VkFMSUQ="}}}, {"name": "max_pooling2d_5", "op": "MaxPool", "input": ["p_re_lu_46/Maximum"], "attr": {"T": {"type": "DT_FLOAT"}, "data_format": {"s": "TkhXQw=="}, "strides": {"list": {"i": ["1", "2", "2", "1"]}}, "ksize": {"list": {"i": ["1", "2", "2", "1"]}}, "padding": {"s": "VkFMSUQ="}}}, {"name": "conv2d_47/conv2d", "op": "Conv2D", "input": ["p_re_lu_46/Maximum", "conv2d_47/Kernel"], "device": "/device:CPU:0", "attr": {"padding": {"s": "VkFMSUQ="}, "dilations": {"list": {"i": ["1", "1", "1", "1"]}}, "T": {"type": "DT_FLOAT"}, "strides": {"list": {"i": ["1", "2", "2", "1"]}}, "data_format": {"s": "TkhXQw=="}, "explicit_paddings": {"list": {}}, "use_cudnn_on_gpu": {"b": true}}}, {"name": "conv2d_31", "op": "Add", "input": ["conv2d_31/conv2d", "conv2d_31/Bias"], "attr": {"T": {"type": "DT_FLOAT"}}}, {"name": "conv2d_47", "op": "Add", "input": ["conv2d_47/conv2d", "conv2d_47/Bias"], "attr": {"T": {"type": "DT_FLOAT"}}}, {"name": "p_re_lu_31/mul", "op": "Mul", "input": ["p_re_lu_31/p_re_lu_31/Alpha", "conv2d_31"], "attr": {"T": {"type": "DT_FLOAT"}}}, {"name": "p_re_lu_47/mul", "op": "Mul", "input": ["p_re_lu_47/p_re_lu_47/Alpha", "conv2d_47"], "attr": {"T": {"type": "DT_FLOAT"}}}, {"name": "p_re_lu_31/Maximum", "op": "Maximum", "input": ["p_re_lu_31/mul", "conv2d_31"], "attr": {"T": {"type": "DT_FLOAT"}}}, {"name": "p_re_lu_47/Maximum", "op": "Maximum", "input": ["p_re_lu_47/mul", "conv2d_47"], "attr": {"T": {"type": "DT_FLOAT"}}}, {"name": "depthwise_conv2d_15/depthwise_conv2d", "op": "DepthwiseConv2dNative", "input": ["p_re_lu_31/Maximum", "depthwise_conv2d_15/Kernel"], "attr": {"dilations": {"list": {"i": ["1", "1", "1", "1"]}}, "T": {"type": "DT_FLOAT"}, "strides": {"list": {"i": ["1", "1", "1", "1"]}}, "data_format": {"s": "TkhXQw=="}, "explicit_paddings": {"list": {}}, "padding": {"s": "U0FNRQ=="}}}, {"name": "depthwise_conv2d_23/depthwise_conv2d", "op": "DepthwiseConv2dNative", "input": ["p_re_lu_47/Maximum", "depthwise_conv2d_23/Kernel"], "attr": {"padding": {"s": "U0FNRQ=="}, "dilations": {"list": {"i": ["1", "1", "1", "1"]}}, "T": {"type": "DT_FLOAT"}, "strides": {"list": {"i": ["1", "1", "1", "1"]}}, "data_format": {"s": "TkhXQw=="}, "explicit_paddings": {"list": {}}}}, {"name": "conv2d_32/conv2d", "op": "Conv2D", "input": ["depthwise_conv2d_15/depthwise_conv2d", "conv2d_32/Kernel"], "device": "/device:CPU:0", "attr": {"dilations": {"list": {"i": ["1", "1", "1", "1"]}}, "T": {"type": "DT_FLOAT"}, "data_format": {"s": "TkhXQw=="}, "strides": {"list": {"i": ["1", "1", "1", "1"]}}, "explicit_paddings": {"list": {}}, "use_cudnn_on_gpu": {"b": true}, "padding": {"s": "VkFMSUQ="}}}, {"name": "conv2d_48/conv2d", "op": "Conv2D", "input": ["depthwise_conv2d_23/depthwise_conv2d", "conv2d_48/Kernel"], "device": "/device:CPU:0", "attr": {"dilations": {"list": {"i": ["1", "1", "1", "1"]}}, "T": {"type": "DT_FLOAT"}, "strides": {"list": {"i": ["1", "1", "1", "1"]}}, "data_format": {"s": "TkhXQw=="}, "explicit_paddings": {"list": {}}, "use_cudnn_on_gpu": {"b": true}, "padding": {"s": "VkFMSUQ="}}}, {"name": "conv2d_32", "op": "Add", "input": ["conv2d_32/conv2d", "conv2d_32/Bias"], "attr": {"T": {"type": "DT_FLOAT"}}}, {"name": "conv2d_48", "op": "Add", "input": ["conv2d_48/conv2d", "conv2d_48/Bias"], "attr": {"T": {"type": "DT_FLOAT"}}}, {"name": "add_15__xeno_compat__1", "op": "Add", "input": ["max_pooling2d_3", "conv2d_32"], "attr": {"T": {"type": "DT_FLOAT"}}}, {"name": "add_23__xeno_compat__1", "op": "Add", "input": ["max_pooling2d_5", "conv2d_48"], "attr": {"T": {"type": "DT_FLOAT"}}}, {"name": "p_re_lu_32/mul", "op": "Mul", "input": ["p_re_lu_32/p_re_lu_32/Alpha", "add_15__xeno_compat__1"], "attr": {"T": {"type": "DT_FLOAT"}}}, {"name": "p_re_lu_48/mul", "op": "Mul", "input": ["p_re_lu_48/p_re_lu_48/Alpha", "add_23__xeno_compat__1"], "attr": {"T": {"type": "DT_FLOAT"}}}, {"name": "p_re_lu_32/Maximum", "op": "Maximum", "input": ["p_re_lu_32/mul", "add_15__xeno_compat__1"], "attr": {"T": {"type": "DT_FLOAT"}}}, {"name": "p_re_lu_48/Maximum", "op": "Maximum", "input": ["p_re_lu_48/mul", "add_23__xeno_compat__1"], "attr": {"T": {"type": "DT_FLOAT"}}}, {"name": "conv2d_33/conv2d", "op": "Conv2D", "input": ["p_re_lu_32/Maximum", "conv2d_33/Kernel"], "device": "/device:CPU:0", "attr": {"T": {"type": "DT_FLOAT"}, "strides": {"list": {"i": ["1", "1", "1", "1"]}}, "data_format": {"s": "TkhXQw=="}, "use_cudnn_on_gpu": {"b": true}, "explicit_paddings": {"list": {}}, "padding": {"s": "VkFMSUQ="}, "dilations": {"list": {"i": ["1", "1", "1", "1"]}}}}, {"name": "conv2d_49/conv2d", "op": "Conv2D", "input": ["p_re_lu_48/Maximum", "conv2d_49/Kernel"], "device": "/device:CPU:0", "attr": {"padding": {"s": "VkFMSUQ="}, "dilations": {"list": {"i": ["1", "1", "1", "1"]}}, "T": {"type": "DT_FLOAT"}, "strides": {"list": {"i": ["1", "1", "1", "1"]}}, "data_format": {"s": "TkhXQw=="}, "explicit_paddings": {"list": {}}, "use_cudnn_on_gpu": {"b": true}}}, {"name": "conv2d_33", "op": "Add", "input": ["conv2d_33/conv2d", "conv2d_33/Bias"], "attr": {"T": {"type": "DT_FLOAT"}}}, {"name": "conv2d_49", "op": "Add", "input": ["conv2d_49/conv2d", "conv2d_49/Bias"], "attr": {"T": {"type": "DT_FLOAT"}}}, {"name": "p_re_lu_33/mul", "op": "Mul", "input": ["p_re_lu_33/p_re_lu_33/Alpha", "conv2d_33"], "attr": {"T": {"type": "DT_FLOAT"}}}, {"name": "p_re_lu_49/mul", "op": "Mul", "input": ["p_re_lu_49/p_re_lu_49/Alpha", "conv2d_49"], "attr": {"T": {"type": "DT_FLOAT"}}}, {"name": "p_re_lu_33/Maximum", "op": "Maximum", "input": ["p_re_lu_33/mul", "conv2d_33"], "attr": {"T": {"type": "DT_FLOAT"}}}, {"name": "p_re_lu_49/Maximum", "op": "Maximum", "input": ["p_re_lu_49/mul", "conv2d_49"], "attr": {"T": {"type": "DT_FLOAT"}}}, {"name": "depthwise_conv2d_16/depthwise_conv2d", "op": "DepthwiseConv2dNative", "input": ["p_re_lu_33/Maximum", "depthwise_conv2d_16/Kernel"], "attr": {"dilations": {"list": {"i": ["1", "1", "1", "1"]}}, "T": {"type": "DT_FLOAT"}, "data_format": {"s": "TkhXQw=="}, "strides": {"list": {"i": ["1", "1", "1", "1"]}}, "explicit_paddings": {"list": {}}, "padding": {"s": "U0FNRQ=="}}}, {"name": "depthwise_conv2d_24/depthwise_conv2d", "op": "DepthwiseConv2dNative", "input": ["p_re_lu_49/Maximum", "depthwise_conv2d_24/Kernel"], "attr": {"dilations": {"list": {"i": ["1", "1", "1", "1"]}}, "T": {"type": "DT_FLOAT"}, "strides": {"list": {"i": ["1", "1", "1", "1"]}}, "data_format": {"s": "TkhXQw=="}, "explicit_paddings": {"list": {}}, "padding": {"s": "U0FNRQ=="}}}, {"name": "conv2d_34/conv2d", "op": "Conv2D", "input": ["depthwise_conv2d_16/depthwise_conv2d", "conv2d_34/Kernel"], "device": "/device:CPU:0", "attr": {"padding": {"s": "VkFMSUQ="}, "dilations": {"list": {"i": ["1", "1", "1", "1"]}}, "T": {"type": "DT_FLOAT"}, "data_format": {"s": "TkhXQw=="}, "strides": {"list": {"i": ["1", "1", "1", "1"]}}, "use_cudnn_on_gpu": {"b": true}, "explicit_paddings": {"list": {}}}}, {"name": "conv2d_50/conv2d", "op": "Conv2D", "input": ["depthwise_conv2d_24/depthwise_conv2d", "conv2d_50/Kernel"], "device": "/device:CPU:0", "attr": {"strides": {"list": {"i": ["1", "1", "1", "1"]}}, "data_format": {"s": "TkhXQw=="}, "use_cudnn_on_gpu": {"b": true}, "explicit_paddings": {"list": {}}, "padding": {"s": "VkFMSUQ="}, "dilations": {"list": {"i": ["1", "1", "1", "1"]}}, "T": {"type": "DT_FLOAT"}}}, {"name": "conv2d_34", "op": "Add", "input": ["conv2d_34/conv2d", "conv2d_34/Bias"], "attr": {"T": {"type": "DT_FLOAT"}}}, {"name": "conv2d_50", "op": "Add", "input": ["conv2d_50/conv2d", "conv2d_50/Bias"], "attr": {"T": {"type": "DT_FLOAT"}}}, {"name": "add_16__xeno_compat__1", "op": "Add", "input": ["p_re_lu_32/Maximum", "conv2d_34"], "attr": {"T": {"type": "DT_FLOAT"}}}, {"name": "add_24__xeno_compat__1", "op": "Add", "input": ["p_re_lu_48/Maximum", "conv2d_50"], "attr": {"T": {"type": "DT_FLOAT"}}}, {"name": "p_re_lu_34/mul", "op": "Mul", "input": ["p_re_lu_34/p_re_lu_34/Alpha", "add_16__xeno_compat__1"], "attr": {"T": {"type": "DT_FLOAT"}}}, {"name": "p_re_lu_50/mul", "op": "Mul", "input": ["p_re_lu_50/p_re_lu_50/Alpha", "add_24__xeno_compat__1"], "attr": {"T": {"type": "DT_FLOAT"}}}, {"name": "p_re_lu_34/Maximum", "op": "Maximum", "input": ["p_re_lu_34/mul", "add_16__xeno_compat__1"], "attr": {"T": {"type": "DT_FLOAT"}}}, {"name": "p_re_lu_50/Maximum", "op": "Maximum", "input": ["p_re_lu_50/mul", "add_24__xeno_compat__1"], "attr": {"T": {"type": "DT_FLOAT"}}}, {"name": "conv2d_35/conv2d", "op": "Conv2D", "input": ["p_re_lu_34/Maximum", "conv2d_35/Kernel"], "device": "/device:CPU:0", "attr": {"padding": {"s": "VkFMSUQ="}, "dilations": {"list": {"i": ["1", "1", "1", "1"]}}, "T": {"type": "DT_FLOAT"}, "data_format": {"s": "TkhXQw=="}, "strides": {"list": {"i": ["1", "1", "1", "1"]}}, "use_cudnn_on_gpu": {"b": true}, "explicit_paddings": {"list": {}}}}, {"name": "conv2d_51/conv2d", "op": "Conv2D", "input": ["p_re_lu_50/Maximum", "conv2d_51/Kernel"], "device": "/device:CPU:0", "attr": {"padding": {"s": "VkFMSUQ="}, "dilations": {"list": {"i": ["1", "1", "1", "1"]}}, "T": {"type": "DT_FLOAT"}, "data_format": {"s": "TkhXQw=="}, "strides": {"list": {"i": ["1", "1", "1", "1"]}}, "use_cudnn_on_gpu": {"b": true}, "explicit_paddings": {"list": {}}}}, {"name": "conv2d_35", "op": "Add", "input": ["conv2d_35/conv2d", "conv2d_35/Bias"], "attr": {"T": {"type": "DT_FLOAT"}}}, {"name": "conv2d_51", "op": "Add", "input": ["conv2d_51/conv2d", "conv2d_51/Bias"], "attr": {"T": {"type": "DT_FLOAT"}}}, {"name": "p_re_lu_35/mul", "op": "Mul", "input": ["p_re_lu_35/p_re_lu_35/Alpha", "conv2d_35"], "attr": {"T": {"type": "DT_FLOAT"}}}, {"name": "p_re_lu_51/mul", "op": "Mul", "input": ["p_re_lu_51/p_re_lu_51/Alpha", "conv2d_51"], "attr": {"T": {"type": "DT_FLOAT"}}}, {"name": "p_re_lu_35/Maximum", "op": "Maximum", "input": ["p_re_lu_35/mul", "conv2d_35"], "attr": {"T": {"type": "DT_FLOAT"}}}, {"name": "p_re_lu_51/Maximum", "op": "Maximum", "input": ["p_re_lu_51/mul", "conv2d_51"], "attr": {"T": {"type": "DT_FLOAT"}}}, {"name": "depthwise_conv2d_17/depthwise_conv2d", "op": "DepthwiseConv2dNative", "input": ["p_re_lu_35/Maximum", "depthwise_conv2d_17/Kernel"], "attr": {"dilations": {"list": {"i": ["1", "1", "1", "1"]}}, "T": {"type": "DT_FLOAT"}, "strides": {"list": {"i": ["1", "1", "1", "1"]}}, "data_format": {"s": "TkhXQw=="}, "explicit_paddings": {"list": {}}, "padding": {"s": "U0FNRQ=="}}}, {"name": "depthwise_conv2d_25/depthwise_conv2d", "op": "DepthwiseConv2dNative", "input": ["p_re_lu_51/Maximum", "depthwise_conv2d_25/Kernel"], "attr": {"data_format": {"s": "TkhXQw=="}, "strides": {"list": {"i": ["1", "1", "1", "1"]}}, "explicit_paddings": {"list": {}}, "padding": {"s": "U0FNRQ=="}, "dilations": {"list": {"i": ["1", "1", "1", "1"]}}, "T": {"type": "DT_FLOAT"}}}, {"name": "conv2d_36/conv2d", "op": "Conv2D", "input": ["depthwise_conv2d_17/depthwise_conv2d", "conv2d_36/Kernel"], "device": "/device:CPU:0", "attr": {"padding": {"s": "VkFMSUQ="}, "dilations": {"list": {"i": ["1", "1", "1", "1"]}}, "T": {"type": "DT_FLOAT"}, "strides": {"list": {"i": ["1", "1", "1", "1"]}}, "data_format": {"s": "TkhXQw=="}, "explicit_paddings": {"list": {}}, "use_cudnn_on_gpu": {"b": true}}}, {"name": "conv2d_52/conv2d", "op": "Conv2D", "input": ["depthwise_conv2d_25/depthwise_conv2d", "conv2d_52/Kernel"], "device": "/device:CPU:0", "attr": {"T": {"type": "DT_FLOAT"}, "data_format": {"s": "TkhXQw=="}, "strides": {"list": {"i": ["1", "1", "1", "1"]}}, "use_cudnn_on_gpu": {"b": true}, "explicit_paddings": {"list": {}}, "padding": {"s": "VkFMSUQ="}, "dilations": {"list": {"i": ["1", "1", "1", "1"]}}}}, {"name": "conv2d_36", "op": "Add", "input": ["conv2d_36/conv2d", "conv2d_36/Bias"], "attr": {"T": {"type": "DT_FLOAT"}}}, {"name": "conv2d_52", "op": "Add", "input": ["conv2d_52/conv2d", "conv2d_52/Bias"], "attr": {"T": {"type": "DT_FLOAT"}}}, {"name": "add_17__xeno_compat__1", "op": "Add", "input": ["p_re_lu_34/Maximum", "conv2d_36"], "attr": {"T": {"type": "DT_FLOAT"}}}, {"name": "add_25__xeno_compat__1", "op": "Add", "input": ["p_re_lu_50/Maximum", "conv2d_52"], "attr": {"T": {"type": "DT_FLOAT"}}}, {"name": "p_re_lu_36/mul", "op": "Mul", "input": ["p_re_lu_36/p_re_lu_36/Alpha", "add_17__xeno_compat__1"], "attr": {"T": {"type": "DT_FLOAT"}}}, {"name": "p_re_lu_52/mul", "op": "Mul", "input": ["p_re_lu_52/p_re_lu_52/Alpha", "add_25__xeno_compat__1"], "attr": {"T": {"type": "DT_FLOAT"}}}, {"name": "p_re_lu_36/Maximum", "op": "Maximum", "input": ["p_re_lu_36/mul", "add_17__xeno_compat__1"], "attr": {"T": {"type": "DT_FLOAT"}}}, {"name": "p_re_lu_52/Maximum", "op": "Maximum", "input": ["p_re_lu_52/mul", "add_25__xeno_compat__1"], "attr": {"T": {"type": "DT_FLOAT"}}}, {"name": "conv_eyes_contours_and_brows/conv2d", "op": "Conv2D", "input": ["p_re_lu_36/Maximum", "conv_eyes_contours_and_brows/Kernel"], "device": "/device:CPU:0", "attr": {"dilations": {"list": {"i": ["1", "1", "1", "1"]}}, "T": {"type": "DT_FLOAT"}, "strides": {"list": {"i": ["1", "1", "1", "1"]}}, "data_format": {"s": "TkhXQw=="}, "use_cudnn_on_gpu": {"b": true}, "explicit_paddings": {"list": {}}, "padding": {"s": "VkFMSUQ="}}}, {"name": "conv_iris/conv2d", "op": "Conv2D", "input": ["p_re_lu_52/Maximum", "conv_iris/Kernel"], "device": "/device:CPU:0", "attr": {"padding": {"s": "VkFMSUQ="}, "dilations": {"list": {"i": ["1", "1", "1", "1"]}}, "T": {"type": "DT_FLOAT"}, "strides": {"list": {"i": ["1", "1", "1", "1"]}}, "data_format": {"s": "TkhXQw=="}, "use_cudnn_on_gpu": {"b": true}, "explicit_paddings": {"list": {}}}}, {"name": "conv_eyes_contours_and_brows", "op": "Add", "input": ["conv_eyes_contours_and_brows/conv2d", "conv_eyes_contours_and_brows/Bias"], "attr": {"T": {"type": "DT_FLOAT"}}}, {"name": "conv_iris", "op": "Add", "input": ["conv_iris/conv2d", "conv_iris/Bias"], "attr": {"T": {"type": "DT_FLOAT"}}}, {"name": "output_eyes_contours_and_brows", "op": "Reshape", "input": ["conv_eyes_contours_and_brows", "output_eyes_contours_and_brows/shape"], "attr": {"T": {"type": "DT_FLOAT"}, "Tshape": {"type": "DT_INT32"}}}, {"name": "output_iris", "op": "Reshape", "input": ["conv_iris", "output_iris/shape"], "attr": {"T": {"type": "DT_FLOAT"}, "Tshape": {"type": "DT_INT32"}}}], "library": {}, "versions": {"producer": 440}}, "weightsManifest": [{"paths": ["group1-shard1of1.bin"], "weights": [{"name": "p_re_lu_36/p_re_lu_36/Alpha", "shape": [1, 1, 128], "dtype": "float32"}, {"name": "p_re_lu_35/p_re_lu_35/Alpha", "shape": [1, 1, 64], "dtype": "float32"}, {"name": "p_re_lu_34/p_re_lu_34/Alpha", "shape": [1, 1, 128], "dtype": "float32"}, {"name": "p_re_lu_33/p_re_lu_33/Alpha", "shape": [1, 1, 64], "dtype": "float32"}, {"name": "p_re_lu_32/p_re_lu_32/Alpha", "shape": [1, 1, 128], "dtype": "float32"}, {"name": "p_re_lu_31/p_re_lu_31/Alpha", "shape": [1, 1, 64], "dtype": "float32"}, {"name": "p_re_lu_30/p_re_lu_30/Alpha", "shape": [1, 1, 128], "dtype": "float32"}, {"name": "p_re_lu_29/p_re_lu_29/Alpha", "shape": [1, 1, 64], "dtype": "float32"}, {"name": "p_re_lu_28/p_re_lu_28/Alpha", "shape": [1, 1, 128], "dtype": "float32"}, {"name": "p_re_lu_27/p_re_lu_27/Alpha", "shape": [1, 1, 64], "dtype": "float32"}, {"name": "p_re_lu_26/p_re_lu_26/Alpha", "shape": [1, 1, 128], "dtype": "float32"}, {"name": "p_re_lu_25/p_re_lu_25/Alpha", "shape": [1, 1, 64], "dtype": "float32"}, {"name": "p_re_lu_24/p_re_lu_24/Alpha", "shape": [1, 1, 128], "dtype": "float32"}, {"name": "p_re_lu_23/p_re_lu_23/Alpha", "shape": [1, 1, 64], "dtype": "float32"}, {"name": "p_re_lu_22/p_re_lu_22/Alpha", "shape": [1, 1, 128], "dtype": "float32"}, {"name": "p_re_lu_21/p_re_lu_21/Alpha", "shape": [1, 1, 64], "dtype": "float32"}, {"name": "conv2d_21/Kernel", "shape": [1, 1, 128, 64], "dtype": "float32"}, {"name": "conv2d_21/Bias", "shape": [64], "dtype": "float32"}, {"name": "depthwise_conv2d_10/Kernel", "shape": [3, 3, 64, 1], "dtype": "float32"}, {"name": "conv2d_22/Kernel", "shape": [1, 1, 64, 128], "dtype": "float32"}, {"name": "conv2d_22/Bias", "shape": [128], "dtype": "float32"}, {"name": "conv2d_23/Kernel", "shape": [1, 1, 128, 64], "dtype": "float32"}, {"name": "conv2d_23/Bias", "shape": [64], "dtype": "float32"}, {"name": "depthwise_conv2d_11/Kernel", "shape": [3, 3, 64, 1], "dtype": "float32"}, {"name": "conv2d_24/Kernel", "shape": [1, 1, 64, 128], "dtype": "float32"}, {"name": "conv2d_24/Bias", "shape": [128], "dtype": "float32"}, {"name": "conv2d_25/Kernel", "shape": [2, 2, 128, 64], "dtype": "float32"}, {"name": "conv2d_25/Bias", "shape": [64], "dtype": "float32"}, {"name": "depthwise_conv2d_12/Kernel", "shape": [3, 3, 64, 1], "dtype": "float32"}, {"name": "conv2d_26/Kernel", "shape": [1, 1, 64, 128], "dtype": "float32"}, {"name": "conv2d_26/Bias", "shape": [128], "dtype": "float32"}, {"name": "conv2d_27/Kernel", "shape": [1, 1, 128, 64], "dtype": "float32"}, {"name": "conv2d_27/Bias", "shape": [64], "dtype": "float32"}, {"name": "depthwise_conv2d_13/Kernel", "shape": [3, 3, 64, 1], "dtype": "float32"}, {"name": "conv2d_28/Kernel", "shape": [1, 1, 64, 128], "dtype": "float32"}, {"name": "conv2d_28/Bias", "shape": [128], "dtype": "float32"}, {"name": "conv2d_29/Kernel", "shape": [1, 1, 128, 64], "dtype": "float32"}, {"name": "conv2d_29/Bias", "shape": [64], "dtype": "float32"}, {"name": "depthwise_conv2d_14/Kernel", "shape": [3, 3, 64, 1], "dtype": "float32"}, {"name": "conv2d_30/Kernel", "shape": [1, 1, 64, 128], "dtype": "float32"}, {"name": "conv2d_30/Bias", "shape": [128], "dtype": "float32"}, {"name": "conv2d_31/Kernel", "shape": [2, 2, 128, 64], "dtype": "float32"}, {"name": "conv2d_31/Bias", "shape": [64], "dtype": "float32"}, {"name": "depthwise_conv2d_15/Kernel", "shape": [3, 3, 64, 1], "dtype": "float32"}, {"name": "conv2d_32/Kernel", "shape": [1, 1, 64, 128], "dtype": "float32"}, {"name": "conv2d_32/Bias", "shape": [128], "dtype": "float32"}, {"name": "conv2d_33/Kernel", "shape": [1, 1, 128, 64], "dtype": "float32"}, {"name": "conv2d_33/Bias", "shape": [64], "dtype": "float32"}, {"name": "depthwise_conv2d_16/Kernel", "shape": [3, 3, 64, 1], "dtype": "float32"}, {"name": "conv2d_34/Kernel", "shape": [1, 1, 64, 128], "dtype": "float32"}, {"name": "conv2d_34/Bias", "shape": [128], "dtype": "float32"}, {"name": "conv2d_35/Kernel", "shape": [1, 1, 128, 64], "dtype": "float32"}, {"name": "conv2d_35/Bias", "shape": [64], "dtype": "float32"}, {"name": "depthwise_conv2d_17/Kernel", "shape": [3, 3, 64, 1], "dtype": "float32"}, {"name": "conv2d_36/Kernel", "shape": [1, 1, 64, 128], "dtype": "float32"}, {"name": "conv2d_36/Bias", "shape": [128], "dtype": "float32"}, {"name": "conv_eyes_contours_and_brows/Kernel", "shape": [2, 2, 128, 213], "dtype": "float32"}, {"name": "conv_eyes_contours_and_brows/Bias", "shape": [213], "dtype": "float32"}, {"name": "output_eyes_contours_and_brows/shape", "shape": [2], "dtype": "int32"}, {"name": "p_re_lu_52/p_re_lu_52/Alpha", "shape": [1, 1, 128], "dtype": "float32"}, {"name": "p_re_lu_51/p_re_lu_51/Alpha", "shape": [1, 1, 64], "dtype": "float32"}, {"name": "p_re_lu_50/p_re_lu_50/Alpha", "shape": [1, 1, 128], "dtype": "float32"}, {"name": "p_re_lu_49/p_re_lu_49/Alpha", "shape": [1, 1, 64], "dtype": "float32"}, {"name": "p_re_lu_48/p_re_lu_48/Alpha", "shape": [1, 1, 128], "dtype": "float32"}, {"name": "p_re_lu_47/p_re_lu_47/Alpha", "shape": [1, 1, 64], "dtype": "float32"}, {"name": "p_re_lu_46/p_re_lu_46/Alpha", "shape": [1, 1, 128], "dtype": "float32"}, {"name": "p_re_lu_45/p_re_lu_45/Alpha", "shape": [1, 1, 64], "dtype": "float32"}, {"name": "p_re_lu_44/p_re_lu_44/Alpha", "shape": [1, 1, 128], "dtype": "float32"}, {"name": "p_re_lu_43/p_re_lu_43/Alpha", "shape": [1, 1, 64], "dtype": "float32"}, {"name": "p_re_lu_42/p_re_lu_42/Alpha", "shape": [1, 1, 128], "dtype": "float32"}, {"name": "p_re_lu_41/p_re_lu_41/Alpha", "shape": [1, 1, 64], "dtype": "float32"}, {"name": "p_re_lu_40/p_re_lu_40/Alpha", "shape": [1, 1, 128], "dtype": "float32"}, {"name": "p_re_lu_39/p_re_lu_39/Alpha", "shape": [1, 1, 64], "dtype": "float32"}, {"name": "p_re_lu_38/p_re_lu_38/Alpha", "shape": [1, 1, 128], "dtype": "float32"}, {"name": "p_re_lu_37/p_re_lu_37/Alpha", "shape": [1, 1, 64], "dtype": "float32"}, {"name": "p_re_lu_20/p_re_lu_20/Alpha", "shape": [1, 1, 128], "dtype": "float32"}, {"name": "p_re_lu_19/p_re_lu_19/Alpha", "shape": [1, 1, 64], "dtype": "float32"}, {"name": "p_re_lu_18/p_re_lu_18/Alpha", "shape": [1, 1, 128], "dtype": "float32"}, {"name": "p_re_lu_17/p_re_lu_17/Alpha", "shape": [1, 1, 64], "dtype": "float32"}, {"name": "p_re_lu_16/p_re_lu_16/Alpha", "shape": [1, 1, 128], "dtype": "float32"}, {"name": "p_re_lu_15/p_re_lu_15/Alpha", "shape": [1, 1, 64], "dtype": "float32"}, {"name": "p_re_lu_14/p_re_lu_14/Alpha", "shape": [1, 1, 128], "dtype": "float32"}, {"name": "p_re_lu_13/p_re_lu_13/Alpha", "shape": [1, 1, 64], "dtype": "float32"}, {"name": "p_re_lu_12/p_re_lu_12/Alpha", "shape": [1, 1, 128], "dtype": "float32"}, {"name": "p_re_lu_11/p_re_lu_11/Alpha", "shape": [1, 1, 64], "dtype": "float32"}, {"name": "p_re_lu_10/p_re_lu_10/Alpha", "shape": [1, 1, 128], "dtype": "float32"}, {"name": "channel_padding/Paddings", "shape": [4, 2], "dtype": "int32"}, {"name": "p_re_lu_9/p_re_lu_9/Alpha", "shape": [1, 1, 64], "dtype": "float32"}, {"name": "p_re_lu_8/p_re_lu_8/Alpha", "shape": [1, 1, 64], "dtype": "float32"}, {"name": "p_re_lu_7/p_re_lu_7/Alpha", "shape": [1, 1, 32], "dtype": "float32"}, {"name": "p_re_lu_6/p_re_lu_6/Alpha", "shape": [1, 1, 64], "dtype": "float32"}, {"name": "p_re_lu_5/p_re_lu_5/Alpha", "shape": [1, 1, 32], "dtype": "float32"}, {"name": "p_re_lu_4/p_re_lu_4/Alpha", "shape": [1, 1, 64], "dtype": "float32"}, {"name": "p_re_lu_3/p_re_lu_3/Alpha", "shape": [1, 1, 32], "dtype": "float32"}, {"name": "p_re_lu_2/p_re_lu_2/Alpha", "shape": [1, 1, 64], "dtype": "float32"}, {"name": "p_re_lu_1/p_re_lu_1/Alpha", "shape": [1, 1, 32], "dtype": "float32"}, {"name": "p_re_lu/p_re_lu/Alpha", "shape": [1, 1, 64], "dtype": "float32"}, {"name": "conv2d/Kernel", "shape": [3, 3, 3, 64], "dtype": "float32"}, {"name": "conv2d/Bias", "shape": [64], "dtype": "float32"}, {"name": "conv2d_1/Kernel", "shape": [1, 1, 64, 32], "dtype": "float32"}, {"name": "conv2d_1/Bias", "shape": [32], "dtype": "float32"}, {"name": "depthwise_conv2d/Kernel", "shape": [3, 3, 32, 1], "dtype": "float32"}, {"name": "conv2d_2/Kernel", "shape": [1, 1, 32, 64], "dtype": "float32"}, {"name": "conv2d_2/Bias", "shape": [64], "dtype": "float32"}, {"name": "conv2d_3/Kernel", "shape": [1, 1, 64, 32], "dtype": "float32"}, {"name": "conv2d_3/Bias", "shape": [32], "dtype": "float32"}, {"name": "depthwise_conv2d_1/Kernel", "shape": [3, 3, 32, 1], "dtype": "float32"}, {"name": "conv2d_4/Kernel", "shape": [1, 1, 32, 64], "dtype": "float32"}, {"name": "conv2d_4/Bias", "shape": [64], "dtype": "float32"}, {"name": "conv2d_5/Kernel", "shape": [1, 1, 64, 32], "dtype": "float32"}, {"name": "conv2d_5/Bias", "shape": [32], "dtype": "float32"}, {"name": "depthwise_conv2d_2/Kernel", "shape": [3, 3, 32, 1], "dtype": "float32"}, {"name": "conv2d_6/Kernel", "shape": [1, 1, 32, 64], "dtype": "float32"}, {"name": "conv2d_6/Bias", "shape": [64], "dtype": "float32"}, {"name": "conv2d_7/Kernel", "shape": [1, 1, 64, 32], "dtype": "float32"}, {"name": "conv2d_7/Bias", "shape": [32], "dtype": "float32"}, {"name": "depthwise_conv2d_3/Kernel", "shape": [3, 3, 32, 1], "dtype": "float32"}, {"name": "conv2d_8/Kernel", "shape": [1, 1, 32, 64], "dtype": "float32"}, {"name": "conv2d_8/Bias", "shape": [64], "dtype": "float32"}, {"name": "conv2d_9/Kernel", "shape": [2, 2, 64, 64], "dtype": "float32"}, {"name": "conv2d_9/Bias", "shape": [64], "dtype": "float32"}, {"name": "depthwise_conv2d_4/Kernel", "shape": [3, 3, 64, 1], "dtype": "float32"}, {"name": "conv2d_10/Kernel", "shape": [1, 1, 64, 128], "dtype": "float32"}, {"name": "conv2d_10/Bias", "shape": [128], "dtype": "float32"}, {"name": "conv2d_11/Kernel", "shape": [1, 1, 128, 64], "dtype": "float32"}, {"name": "conv2d_11/Bias", "shape": [64], "dtype": "float32"}, {"name": "depthwise_conv2d_5/Kernel", "shape": [3, 3, 64, 1], "dtype": "float32"}, {"name": "conv2d_12/Kernel", "shape": [1, 1, 64, 128], "dtype": "float32"}, {"name": "conv2d_12/Bias", "shape": [128], "dtype": "float32"}, {"name": "conv2d_13/Kernel", "shape": [1, 1, 128, 64], "dtype": "float32"}, {"name": "conv2d_13/Bias", "shape": [64], "dtype": "float32"}, {"name": "depthwise_conv2d_6/Kernel", "shape": [3, 3, 64, 1], "dtype": "float32"}, {"name": "conv2d_14/Kernel", "shape": [1, 1, 64, 128], "dtype": "float32"}, {"name": "conv2d_14/Bias", "shape": [128], "dtype": "float32"}, {"name": "conv2d_15/Kernel", "shape": [1, 1, 128, 64], "dtype": "float32"}, {"name": "conv2d_15/Bias", "shape": [64], "dtype": "float32"}, {"name": "depthwise_conv2d_7/Kernel", "shape": [3, 3, 64, 1], "dtype": "float32"}, {"name": "conv2d_16/Kernel", "shape": [1, 1, 64, 128], "dtype": "float32"}, {"name": "conv2d_16/Bias", "shape": [128], "dtype": "float32"}, {"name": "conv2d_17/Kernel", "shape": [1, 1, 128, 64], "dtype": "float32"}, {"name": "conv2d_17/Bias", "shape": [64], "dtype": "float32"}, {"name": "depthwise_conv2d_8/Kernel", "shape": [3, 3, 64, 1], "dtype": "float32"}, {"name": "conv2d_18/Kernel", "shape": [1, 1, 64, 128], "dtype": "float32"}, {"name": "conv2d_18/Bias", "shape": [128], "dtype": "float32"}, {"name": "conv2d_19/Kernel", "shape": [2, 2, 128, 64], "dtype": "float32"}, {"name": "conv2d_19/Bias", "shape": [64], "dtype": "float32"}, {"name": "depthwise_conv2d_9/Kernel", "shape": [3, 3, 64, 1], "dtype": "float32"}, {"name": "conv2d_20/Kernel", "shape": [1, 1, 64, 128], "dtype": "float32"}, {"name": "conv2d_20/Bias", "shape": [128], "dtype": "float32"}, {"name": "conv2d_37/Kernel", "shape": [1, 1, 128, 64], "dtype": "float32"}, {"name": "conv2d_37/Bias", "shape": [64], "dtype": "float32"}, {"name": "depthwise_conv2d_18/Kernel", "shape": [3, 3, 64, 1], "dtype": "float32"}, {"name": "conv2d_38/Kernel", "shape": [1, 1, 64, 128], "dtype": "float32"}, {"name": "conv2d_38/Bias", "shape": [128], "dtype": "float32"}, {"name": "conv2d_39/Kernel", "shape": [1, 1, 128, 64], "dtype": "float32"}, {"name": "conv2d_39/Bias", "shape": [64], "dtype": "float32"}, {"name": "depthwise_conv2d_19/Kernel", "shape": [3, 3, 64, 1], "dtype": "float32"}, {"name": "conv2d_40/Kernel", "shape": [1, 1, 64, 128], "dtype": "float32"}, {"name": "conv2d_40/Bias", "shape": [128], "dtype": "float32"}, {"name": "conv2d_41/Kernel", "shape": [2, 2, 128, 64], "dtype": "float32"}, {"name": "conv2d_41/Bias", "shape": [64], "dtype": "float32"}, {"name": "depthwise_conv2d_20/Kernel", "shape": [3, 3, 64, 1], "dtype": "float32"}, {"name": "conv2d_42/Kernel", "shape": [1, 1, 64, 128], "dtype": "float32"}, {"name": "conv2d_42/Bias", "shape": [128], "dtype": "float32"}, {"name": "conv2d_43/Kernel", "shape": [1, 1, 128, 64], "dtype": "float32"}, {"name": "conv2d_43/Bias", "shape": [64], "dtype": "float32"}, {"name": "depthwise_conv2d_21/Kernel", "shape": [3, 3, 64, 1], "dtype": "float32"}, {"name": "conv2d_44/Kernel", "shape": [1, 1, 64, 128], "dtype": "float32"}, {"name": "conv2d_44/Bias", "shape": [128], "dtype": "float32"}, {"name": "conv2d_45/Kernel", "shape": [1, 1, 128, 64], "dtype": "float32"}, {"name": "conv2d_45/Bias", "shape": [64], "dtype": "float32"}, {"name": "depthwise_conv2d_22/Kernel", "shape": [3, 3, 64, 1], "dtype": "float32"}, {"name": "conv2d_46/Kernel", "shape": [1, 1, 64, 128], "dtype": "float32"}, {"name": "conv2d_46/Bias", "shape": [128], "dtype": "float32"}, {"name": "conv2d_47/Kernel", "shape": [2, 2, 128, 64], "dtype": "float32"}, {"name": "conv2d_47/Bias", "shape": [64], "dtype": "float32"}, {"name": "depthwise_conv2d_23/Kernel", "shape": [3, 3, 64, 1], "dtype": "float32"}, {"name": "conv2d_48/Kernel", "shape": [1, 1, 64, 128], "dtype": "float32"}, {"name": "conv2d_48/Bias", "shape": [128], "dtype": "float32"}, {"name": "conv2d_49/Kernel", "shape": [1, 1, 128, 64], "dtype": "float32"}, {"name": "conv2d_49/Bias", "shape": [64], "dtype": "float32"}, {"name": "depthwise_conv2d_24/Kernel", "shape": [3, 3, 64, 1], "dtype": "float32"}, {"name": "conv2d_50/Kernel", "shape": [1, 1, 64, 128], "dtype": "float32"}, {"name": "conv2d_50/Bias", "shape": [128], "dtype": "float32"}, {"name": "conv2d_51/Kernel", "shape": [1, 1, 128, 64], "dtype": "float32"}, {"name": "conv2d_51/Bias", "shape": [64], "dtype": "float32"}, {"name": "depthwise_conv2d_25/Kernel", "shape": [3, 3, 64, 1], "dtype": "float32"}, {"name": "conv2d_52/Kernel", "shape": [1, 1, 64, 128], "dtype": "float32"}, {"name": "conv2d_52/Bias", "shape": [128], "dtype": "float32"}, {"name": "conv_iris/Kernel", "shape": [2, 2, 128, 15], "dtype": "float32"}, {"name": "conv_iris/Bias", "shape": [15], "dtype": "float32"}, {"name": "output_iris/shape", "shape": [2], "dtype": "int32"}]}]}